<?xml version="1.0"?>
<net name="torch_jit" version="11">
	<layers>
		<layer id="0" name="images" type="Parameter" version="opset1">
			<data shape="1,640,640,3" element_type="u8" />
			<rt_info>
				<attribute name="fused_names" version="0" value="images" />
			</rt_info>
			<output>
				<port id="0" precision="U8" names="images">
					<dim>1</dim>
					<dim>640</dim>
					<dim>640</dim>
					<dim>3</dim>
					<rt_info>
						<attribute name="layout" version="0" layout="[N,H,W,C]" />
					</rt_info>
				</port>
			</output>
		</layer>
		<layer id="1" name="/model.22/Constant_8" type="Const" version="opset1">
			<data element_type="f32" shape="" offset="0" size="4" />
			<rt_info>
				<attribute name="fused_names" version="0" value="/model.22/Constant_8" />
			</rt_info>
			<output>
				<port id="0" precision="FP32" names="/model.22/Constant_8_output_0" />
			</output>
		</layer>
		<layer id="2" name="Convert_622667" type="Convert" version="opset1">
			<data destination_type="f32" />
			<input>
				<port id="0" precision="U8">
					<dim>1</dim>
					<dim>640</dim>
					<dim>640</dim>
					<dim>3</dim>
				</port>
			</input>
			<output>
				<port id="1" precision="FP32">
					<dim>1</dim>
					<dim>640</dim>
					<dim>640</dim>
					<dim>3</dim>
				</port>
			</output>
		</layer>
		<layer id="3" name="Constant_622668" type="Const" version="opset1">
			<data element_type="i64" shape="4" offset="4" size="32" />
			<output>
				<port id="0" precision="I64">
					<dim>4</dim>
				</port>
			</output>
		</layer>
		<layer id="4" name="Transpose_622669" type="Transpose" version="opset1">
			<input>
				<port id="0" precision="FP32">
					<dim>1</dim>
					<dim>640</dim>
					<dim>640</dim>
					<dim>3</dim>
				</port>
				<port id="1" precision="I64">
					<dim>4</dim>
				</port>
			</input>
			<output>
				<port id="2" precision="FP32">
					<dim>1</dim>
					<dim>3</dim>
					<dim>640</dim>
					<dim>640</dim>
				</port>
			</output>
		</layer>
		<layer id="5" name="Constant_622670" type="Const" version="opset1">
			<data element_type="f32" shape="1, 3, 1, 1" offset="36" size="12" />
			<output>
				<port id="0" precision="FP32">
					<dim>1</dim>
					<dim>3</dim>
					<dim>1</dim>
					<dim>1</dim>
				</port>
			</output>
		</layer>
		<layer id="6" name="Divide_622671" type="Divide" version="opset1">
			<data auto_broadcast="numpy" m_pythondiv="true" />
			<rt_info>
				<attribute name="preprocessing" version="0" />
			</rt_info>
			<input>
				<port id="0" precision="FP32">
					<dim>1</dim>
					<dim>3</dim>
					<dim>640</dim>
					<dim>640</dim>
				</port>
				<port id="1" precision="FP32">
					<dim>1</dim>
					<dim>3</dim>
					<dim>1</dim>
					<dim>1</dim>
				</port>
			</input>
			<output>
				<port id="2" precision="FP32">
					<dim>1</dim>
					<dim>3</dim>
					<dim>640</dim>
					<dim>640</dim>
				</port>
			</output>
		</layer>
		<layer id="7" name="Constant_103413" type="Const" version="opset1">
			<data element_type="f32" shape="" offset="0" size="4" />
			<rt_info>
				<attribute name="fused_names" version="0" value="Constant_103413" />
			</rt_info>
			<output>
				<port id="0" precision="FP32" />
			</output>
		</layer>
		<layer id="8" name="Constant_103414" type="Const" version="opset1">
			<data element_type="f32" shape="" offset="48" size="4" />
			<rt_info>
				<attribute name="fused_names" version="0" value="Constant_103414" />
			</rt_info>
			<output>
				<port id="0" precision="FP32" />
			</output>
		</layer>
		<layer id="9" name="Constant_103415" type="Const" version="opset1">
			<data element_type="f32" shape="" offset="0" size="4" />
			<rt_info>
				<attribute name="fused_names" version="0" value="Constant_103415" />
			</rt_info>
			<output>
				<port id="0" precision="FP32" />
			</output>
		</layer>
		<layer id="10" name="Constant_103416" type="Const" version="opset1">
			<data element_type="f32" shape="" offset="48" size="4" />
			<rt_info>
				<attribute name="fused_names" version="0" value="Constant_103416" />
			</rt_info>
			<output>
				<port id="0" precision="FP32" />
			</output>
		</layer>
		<layer id="11" name="images/fq_output_0" type="FakeQuantize" version="opset1">
			<data levels="256" auto_broadcast="numpy" />
			<rt_info>
				<attribute name="fused_names" version="0" value="images/fq_output_0" />
			</rt_info>
			<input>
				<port id="0" precision="FP32">
					<dim>1</dim>
					<dim>3</dim>
					<dim>640</dim>
					<dim>640</dim>
				</port>
				<port id="1" precision="FP32" />
				<port id="2" precision="FP32" />
				<port id="3" precision="FP32" />
				<port id="4" precision="FP32" />
			</input>
			<output>
				<port id="5" precision="FP32">
					<dim>1</dim>
					<dim>3</dim>
					<dim>640</dim>
					<dim>640</dim>
				</port>
			</output>
		</layer>
		<layer id="12" name="model.0.conv.weight" type="Const" version="opset1">
			<data element_type="i8" shape="64, 3, 3, 3" offset="52" size="1728" />
			<rt_info>
				<attribute name="fused_names" version="0" value="model.0.conv.weight" />
			</rt_info>
			<output>
				<port id="0" precision="I8">
					<dim>64</dim>
					<dim>3</dim>
					<dim>3</dim>
					<dim>3</dim>
				</port>
			</output>
		</layer>
		<layer id="13" name="Convert_559715" type="Convert" version="opset1">
			<data destination_type="f32" />
			<rt_info>
				<attribute name="fused_names" version="0" value="model.0.conv.weight" />
			</rt_info>
			<input>
				<port id="0" precision="I8">
					<dim>64</dim>
					<dim>3</dim>
					<dim>3</dim>
					<dim>3</dim>
				</port>
			</input>
			<output>
				<port id="1" precision="FP32">
					<dim>64</dim>
					<dim>3</dim>
					<dim>3</dim>
					<dim>3</dim>
				</port>
			</output>
		</layer>
		<layer id="14" name="Constant_559613" type="Const" version="opset1">
			<data element_type="f32" shape="64, 1, 1, 1" offset="1780" size="256" />
			<rt_info>
				<attribute name="fused_names" version="0" value="model.0.conv.weight" />
			</rt_info>
			<output>
				<port id="0" precision="FP32">
					<dim>64</dim>
					<dim>1</dim>
					<dim>1</dim>
					<dim>1</dim>
				</port>
			</output>
		</layer>
		<layer id="15" name="/model.0/conv/Conv/WithoutBiases/fq_weights_1" type="Multiply" version="opset1">
			<data auto_broadcast="numpy" />
			<rt_info>
				<attribute name="fused_names" version="0" value="model.0.conv.weight" />
			</rt_info>
			<input>
				<port id="0" precision="FP32">
					<dim>64</dim>
					<dim>3</dim>
					<dim>3</dim>
					<dim>3</dim>
				</port>
				<port id="1" precision="FP32">
					<dim>64</dim>
					<dim>1</dim>
					<dim>1</dim>
					<dim>1</dim>
				</port>
			</input>
			<output>
				<port id="2" precision="FP32">
					<dim>64</dim>
					<dim>3</dim>
					<dim>3</dim>
					<dim>3</dim>
				</port>
			</output>
		</layer>
		<layer id="16" name="/model.0/conv/Conv/WithoutBiases" type="Convolution" version="opset1">
			<data strides="2, 2" dilations="1, 1" pads_begin="1, 1" pads_end="1, 1" auto_pad="explicit" />
			<rt_info>
				<attribute name="fused_names" version="0" value="/model.0/conv/Conv/WithoutBiases" />
			</rt_info>
			<input>
				<port id="0" precision="FP32">
					<dim>1</dim>
					<dim>3</dim>
					<dim>640</dim>
					<dim>640</dim>
				</port>
				<port id="1" precision="FP32">
					<dim>64</dim>
					<dim>3</dim>
					<dim>3</dim>
					<dim>3</dim>
				</port>
			</input>
			<output>
				<port id="2" precision="FP32">
					<dim>1</dim>
					<dim>64</dim>
					<dim>320</dim>
					<dim>320</dim>
				</port>
			</output>
		</layer>
		<layer id="17" name="Reshape_220" type="Const" version="opset1">
			<data element_type="f32" shape="1, 64, 1, 1" offset="2036" size="256" />
			<rt_info>
				<attribute name="fused_names" version="0" value="Reshape_220" />
			</rt_info>
			<output>
				<port id="0" precision="FP32">
					<dim>1</dim>
					<dim>64</dim>
					<dim>1</dim>
					<dim>1</dim>
				</port>
			</output>
		</layer>
		<layer id="18" name="/model.0/conv/Conv" type="Add" version="opset1">
			<data auto_broadcast="numpy" />
			<rt_info>
				<attribute name="fused_names" version="0" value="/model.0/conv/Conv" />
			</rt_info>
			<input>
				<port id="0" precision="FP32">
					<dim>1</dim>
					<dim>64</dim>
					<dim>320</dim>
					<dim>320</dim>
				</port>
				<port id="1" precision="FP32">
					<dim>1</dim>
					<dim>64</dim>
					<dim>1</dim>
					<dim>1</dim>
				</port>
			</input>
			<output>
				<port id="2" precision="FP32" names="/model.0/conv/Conv_output_0">
					<dim>1</dim>
					<dim>64</dim>
					<dim>320</dim>
					<dim>320</dim>
				</port>
			</output>
		</layer>
		<layer id="19" name="/model.0/act/Mul" type="Swish" version="opset4">
			<rt_info>
				<attribute name="fused_names" version="0" value="/model.0/act/Mul" />
			</rt_info>
			<input>
				<port id="0" precision="FP32">
					<dim>1</dim>
					<dim>64</dim>
					<dim>320</dim>
					<dim>320</dim>
				</port>
			</input>
			<output>
				<port id="1" precision="FP32" names="/model.0/act/Mul_output_0">
					<dim>1</dim>
					<dim>64</dim>
					<dim>320</dim>
					<dim>320</dim>
				</port>
			</output>
		</layer>
		<layer id="20" name="Constant_103423" type="Const" version="opset1">
			<data element_type="f32" shape="" offset="2292" size="4" />
			<rt_info>
				<attribute name="fused_names" version="0" value="Constant_103423" />
			</rt_info>
			<output>
				<port id="0" precision="FP32" />
			</output>
		</layer>
		<layer id="21" name="Constant_103424" type="Const" version="opset1">
			<data element_type="f32" shape="" offset="2296" size="4" />
			<rt_info>
				<attribute name="fused_names" version="0" value="Constant_103424" />
			</rt_info>
			<output>
				<port id="0" precision="FP32" />
			</output>
		</layer>
		<layer id="22" name="Constant_103425" type="Const" version="opset1">
			<data element_type="f32" shape="" offset="2292" size="4" />
			<rt_info>
				<attribute name="fused_names" version="0" value="Constant_103425" />
			</rt_info>
			<output>
				<port id="0" precision="FP32" />
			</output>
		</layer>
		<layer id="23" name="Constant_103426" type="Const" version="opset1">
			<data element_type="f32" shape="" offset="2296" size="4" />
			<rt_info>
				<attribute name="fused_names" version="0" value="Constant_103426" />
			</rt_info>
			<output>
				<port id="0" precision="FP32" />
			</output>
		</layer>
		<layer id="24" name="/model.0/act/Mul/fq_output_0" type="FakeQuantize" version="opset1">
			<data levels="256" auto_broadcast="numpy" />
			<rt_info>
				<attribute name="fused_names" version="0" value="/model.0/act/Mul/fq_output_0" />
			</rt_info>
			<input>
				<port id="0" precision="FP32">
					<dim>1</dim>
					<dim>64</dim>
					<dim>320</dim>
					<dim>320</dim>
				</port>
				<port id="1" precision="FP32" />
				<port id="2" precision="FP32" />
				<port id="3" precision="FP32" />
				<port id="4" precision="FP32" />
			</input>
			<output>
				<port id="5" precision="FP32">
					<dim>1</dim>
					<dim>64</dim>
					<dim>320</dim>
					<dim>320</dim>
				</port>
			</output>
		</layer>
		<layer id="25" name="model.1.conv.weight" type="Const" version="opset1">
			<data element_type="i8" shape="128, 64, 3, 3" offset="2300" size="73728" />
			<rt_info>
				<attribute name="fused_names" version="0" value="model.1.conv.weight" />
			</rt_info>
			<output>
				<port id="0" precision="I8">
					<dim>128</dim>
					<dim>64</dim>
					<dim>3</dim>
					<dim>3</dim>
				</port>
			</output>
		</layer>
		<layer id="26" name="Convert_559869" type="Convert" version="opset1">
			<data destination_type="f32" />
			<rt_info>
				<attribute name="fused_names" version="0" value="model.1.conv.weight" />
			</rt_info>
			<input>
				<port id="0" precision="I8">
					<dim>128</dim>
					<dim>64</dim>
					<dim>3</dim>
					<dim>3</dim>
				</port>
			</input>
			<output>
				<port id="1" precision="FP32">
					<dim>128</dim>
					<dim>64</dim>
					<dim>3</dim>
					<dim>3</dim>
				</port>
			</output>
		</layer>
		<layer id="27" name="Constant_559767" type="Const" version="opset1">
			<data element_type="f32" shape="128, 1, 1, 1" offset="76028" size="512" />
			<rt_info>
				<attribute name="fused_names" version="0" value="model.1.conv.weight" />
			</rt_info>
			<output>
				<port id="0" precision="FP32">
					<dim>128</dim>
					<dim>1</dim>
					<dim>1</dim>
					<dim>1</dim>
				</port>
			</output>
		</layer>
		<layer id="28" name="/model.1/conv/Conv/WithoutBiases/fq_weights_1" type="Multiply" version="opset1">
			<data auto_broadcast="numpy" />
			<rt_info>
				<attribute name="fused_names" version="0" value="model.1.conv.weight" />
			</rt_info>
			<input>
				<port id="0" precision="FP32">
					<dim>128</dim>
					<dim>64</dim>
					<dim>3</dim>
					<dim>3</dim>
				</port>
				<port id="1" precision="FP32">
					<dim>128</dim>
					<dim>1</dim>
					<dim>1</dim>
					<dim>1</dim>
				</port>
			</input>
			<output>
				<port id="2" precision="FP32">
					<dim>128</dim>
					<dim>64</dim>
					<dim>3</dim>
					<dim>3</dim>
				</port>
			</output>
		</layer>
		<layer id="29" name="/model.1/conv/Conv/WithoutBiases" type="Convolution" version="opset1">
			<data strides="2, 2" dilations="1, 1" pads_begin="1, 1" pads_end="1, 1" auto_pad="explicit" />
			<rt_info>
				<attribute name="fused_names" version="0" value="/model.1/conv/Conv/WithoutBiases" />
			</rt_info>
			<input>
				<port id="0" precision="FP32">
					<dim>1</dim>
					<dim>64</dim>
					<dim>320</dim>
					<dim>320</dim>
				</port>
				<port id="1" precision="FP32">
					<dim>128</dim>
					<dim>64</dim>
					<dim>3</dim>
					<dim>3</dim>
				</port>
			</input>
			<output>
				<port id="2" precision="FP32">
					<dim>1</dim>
					<dim>128</dim>
					<dim>160</dim>
					<dim>160</dim>
				</port>
			</output>
		</layer>
		<layer id="30" name="Reshape_237" type="Const" version="opset1">
			<data element_type="f32" shape="1, 128, 1, 1" offset="76540" size="512" />
			<rt_info>
				<attribute name="fused_names" version="0" value="Reshape_237" />
			</rt_info>
			<output>
				<port id="0" precision="FP32">
					<dim>1</dim>
					<dim>128</dim>
					<dim>1</dim>
					<dim>1</dim>
				</port>
			</output>
		</layer>
		<layer id="31" name="/model.1/conv/Conv" type="Add" version="opset1">
			<data auto_broadcast="numpy" />
			<rt_info>
				<attribute name="fused_names" version="0" value="/model.1/conv/Conv" />
			</rt_info>
			<input>
				<port id="0" precision="FP32">
					<dim>1</dim>
					<dim>128</dim>
					<dim>160</dim>
					<dim>160</dim>
				</port>
				<port id="1" precision="FP32">
					<dim>1</dim>
					<dim>128</dim>
					<dim>1</dim>
					<dim>1</dim>
				</port>
			</input>
			<output>
				<port id="2" precision="FP32" names="/model.1/conv/Conv_output_0">
					<dim>1</dim>
					<dim>128</dim>
					<dim>160</dim>
					<dim>160</dim>
				</port>
			</output>
		</layer>
		<layer id="32" name="/model.1/act/Mul" type="Swish" version="opset4">
			<rt_info>
				<attribute name="fused_names" version="0" value="/model.1/act/Mul" />
			</rt_info>
			<input>
				<port id="0" precision="FP32">
					<dim>1</dim>
					<dim>128</dim>
					<dim>160</dim>
					<dim>160</dim>
				</port>
			</input>
			<output>
				<port id="1" precision="FP32" names="/model.1/act/Mul_output_0">
					<dim>1</dim>
					<dim>128</dim>
					<dim>160</dim>
					<dim>160</dim>
				</port>
			</output>
		</layer>
		<layer id="33" name="Constant_103433" type="Const" version="opset1">
			<data element_type="f32" shape="" offset="2292" size="4" />
			<rt_info>
				<attribute name="fused_names" version="0" value="Constant_103433" />
			</rt_info>
			<output>
				<port id="0" precision="FP32" />
			</output>
		</layer>
		<layer id="34" name="Constant_103434" type="Const" version="opset1">
			<data element_type="f32" shape="" offset="2296" size="4" />
			<rt_info>
				<attribute name="fused_names" version="0" value="Constant_103434" />
			</rt_info>
			<output>
				<port id="0" precision="FP32" />
			</output>
		</layer>
		<layer id="35" name="Constant_103435" type="Const" version="opset1">
			<data element_type="f32" shape="" offset="2292" size="4" />
			<rt_info>
				<attribute name="fused_names" version="0" value="Constant_103435" />
			</rt_info>
			<output>
				<port id="0" precision="FP32" />
			</output>
		</layer>
		<layer id="36" name="Constant_103436" type="Const" version="opset1">
			<data element_type="f32" shape="" offset="2296" size="4" />
			<rt_info>
				<attribute name="fused_names" version="0" value="Constant_103436" />
			</rt_info>
			<output>
				<port id="0" precision="FP32" />
			</output>
		</layer>
		<layer id="37" name="/model.1/act/Mul/fq_output_0" type="FakeQuantize" version="opset1">
			<data levels="256" auto_broadcast="numpy" />
			<rt_info>
				<attribute name="fused_names" version="0" value="/model.1/act/Mul/fq_output_0" />
			</rt_info>
			<input>
				<port id="0" precision="FP32">
					<dim>1</dim>
					<dim>128</dim>
					<dim>160</dim>
					<dim>160</dim>
				</port>
				<port id="1" precision="FP32" />
				<port id="2" precision="FP32" />
				<port id="3" precision="FP32" />
				<port id="4" precision="FP32" />
			</input>
			<output>
				<port id="5" precision="FP32">
					<dim>1</dim>
					<dim>128</dim>
					<dim>160</dim>
					<dim>160</dim>
				</port>
			</output>
		</layer>
		<layer id="38" name="model.2.cv1.conv.weight" type="Const" version="opset1">
			<data element_type="i8" shape="128, 128, 1, 1" offset="77052" size="16384" />
			<rt_info>
				<attribute name="fused_names" version="0" value="model.2.cv1.conv.weight" />
			</rt_info>
			<output>
				<port id="0" precision="I8">
					<dim>128</dim>
					<dim>128</dim>
					<dim>1</dim>
					<dim>1</dim>
				</port>
			</output>
		</layer>
		<layer id="39" name="Convert_560023" type="Convert" version="opset1">
			<data destination_type="f32" />
			<rt_info>
				<attribute name="fused_names" version="0" value="model.2.cv1.conv.weight" />
			</rt_info>
			<input>
				<port id="0" precision="I8">
					<dim>128</dim>
					<dim>128</dim>
					<dim>1</dim>
					<dim>1</dim>
				</port>
			</input>
			<output>
				<port id="1" precision="FP32">
					<dim>128</dim>
					<dim>128</dim>
					<dim>1</dim>
					<dim>1</dim>
				</port>
			</output>
		</layer>
		<layer id="40" name="Constant_559921" type="Const" version="opset1">
			<data element_type="f32" shape="128, 1, 1, 1" offset="93436" size="512" />
			<rt_info>
				<attribute name="fused_names" version="0" value="model.2.cv1.conv.weight" />
			</rt_info>
			<output>
				<port id="0" precision="FP32">
					<dim>128</dim>
					<dim>1</dim>
					<dim>1</dim>
					<dim>1</dim>
				</port>
			</output>
		</layer>
		<layer id="41" name="/model.2/cv1/conv/Conv/WithoutBiases/fq_weights_1" type="Multiply" version="opset1">
			<data auto_broadcast="numpy" />
			<rt_info>
				<attribute name="fused_names" version="0" value="model.2.cv1.conv.weight" />
			</rt_info>
			<input>
				<port id="0" precision="FP32">
					<dim>128</dim>
					<dim>128</dim>
					<dim>1</dim>
					<dim>1</dim>
				</port>
				<port id="1" precision="FP32">
					<dim>128</dim>
					<dim>1</dim>
					<dim>1</dim>
					<dim>1</dim>
				</port>
			</input>
			<output>
				<port id="2" precision="FP32">
					<dim>128</dim>
					<dim>128</dim>
					<dim>1</dim>
					<dim>1</dim>
				</port>
			</output>
		</layer>
		<layer id="42" name="/model.2/cv1/conv/Conv/WithoutBiases" type="Convolution" version="opset1">
			<data strides="1, 1" dilations="1, 1" pads_begin="0, 0" pads_end="0, 0" auto_pad="explicit" />
			<rt_info>
				<attribute name="fused_names" version="0" value="/model.2/cv1/conv/Conv/WithoutBiases" />
			</rt_info>
			<input>
				<port id="0" precision="FP32">
					<dim>1</dim>
					<dim>128</dim>
					<dim>160</dim>
					<dim>160</dim>
				</port>
				<port id="1" precision="FP32">
					<dim>128</dim>
					<dim>128</dim>
					<dim>1</dim>
					<dim>1</dim>
				</port>
			</input>
			<output>
				<port id="2" precision="FP32">
					<dim>1</dim>
					<dim>128</dim>
					<dim>160</dim>
					<dim>160</dim>
				</port>
			</output>
		</layer>
		<layer id="43" name="Reshape_254" type="Const" version="opset1">
			<data element_type="f32" shape="1, 128, 1, 1" offset="93948" size="512" />
			<rt_info>
				<attribute name="fused_names" version="0" value="Reshape_254" />
			</rt_info>
			<output>
				<port id="0" precision="FP32">
					<dim>1</dim>
					<dim>128</dim>
					<dim>1</dim>
					<dim>1</dim>
				</port>
			</output>
		</layer>
		<layer id="44" name="/model.2/cv1/conv/Conv" type="Add" version="opset1">
			<data auto_broadcast="numpy" />
			<rt_info>
				<attribute name="fused_names" version="0" value="/model.2/cv1/conv/Conv" />
			</rt_info>
			<input>
				<port id="0" precision="FP32">
					<dim>1</dim>
					<dim>128</dim>
					<dim>160</dim>
					<dim>160</dim>
				</port>
				<port id="1" precision="FP32">
					<dim>1</dim>
					<dim>128</dim>
					<dim>1</dim>
					<dim>1</dim>
				</port>
			</input>
			<output>
				<port id="2" precision="FP32" names="/model.2/cv1/conv/Conv_output_0">
					<dim>1</dim>
					<dim>128</dim>
					<dim>160</dim>
					<dim>160</dim>
				</port>
			</output>
		</layer>
		<layer id="45" name="/model.2/cv1/act/Mul" type="Swish" version="opset4">
			<rt_info>
				<attribute name="fused_names" version="0" value="/model.2/cv1/act/Mul" />
			</rt_info>
			<input>
				<port id="0" precision="FP32">
					<dim>1</dim>
					<dim>128</dim>
					<dim>160</dim>
					<dim>160</dim>
				</port>
			</input>
			<output>
				<port id="1" precision="FP32" names="/model.2/cv1/act/Mul_output_0">
					<dim>1</dim>
					<dim>128</dim>
					<dim>160</dim>
					<dim>160</dim>
				</port>
			</output>
		</layer>
		<layer id="46" name="Constant_103178" type="Const" version="opset1">
			<data element_type="f32" shape="" offset="94460" size="4" />
			<rt_info>
				<attribute name="fused_names" version="0" value="Constant_103178" />
			</rt_info>
			<output>
				<port id="0" precision="FP32" />
			</output>
		</layer>
		<layer id="47" name="Constant_103179" type="Const" version="opset1">
			<data element_type="f32" shape="" offset="94464" size="4" />
			<rt_info>
				<attribute name="fused_names" version="0" value="Constant_103179" />
			</rt_info>
			<output>
				<port id="0" precision="FP32" />
			</output>
		</layer>
		<layer id="48" name="Constant_103180" type="Const" version="opset1">
			<data element_type="f32" shape="" offset="94460" size="4" />
			<rt_info>
				<attribute name="fused_names" version="0" value="Constant_103180" />
			</rt_info>
			<output>
				<port id="0" precision="FP32" />
			</output>
		</layer>
		<layer id="49" name="Constant_103181" type="Const" version="opset1">
			<data element_type="f32" shape="" offset="94464" size="4" />
			<rt_info>
				<attribute name="fused_names" version="0" value="Constant_103181" />
			</rt_info>
			<output>
				<port id="0" precision="FP32" />
			</output>
		</layer>
		<layer id="50" name="/model.2/cv1/act/Mul/fq_output_0" type="FakeQuantize" version="opset1">
			<data levels="256" auto_broadcast="numpy" />
			<rt_info>
				<attribute name="fused_names" version="0" value="/model.2/cv1/act/Mul/fq_output_0" />
			</rt_info>
			<input>
				<port id="0" precision="FP32">
					<dim>1</dim>
					<dim>128</dim>
					<dim>160</dim>
					<dim>160</dim>
				</port>
				<port id="1" precision="FP32" />
				<port id="2" precision="FP32" />
				<port id="3" precision="FP32" />
				<port id="4" precision="FP32" />
			</input>
			<output>
				<port id="5" precision="FP32">
					<dim>1</dim>
					<dim>128</dim>
					<dim>160</dim>
					<dim>160</dim>
				</port>
			</output>
		</layer>
		<layer id="51" name="Constant_261" type="Const" version="opset1">
			<data element_type="i64" shape="" offset="94468" size="8" />
			<rt_info>
				<attribute name="fused_names" version="0" value="Constant_261" />
			</rt_info>
			<output>
				<port id="0" precision="I64" />
			</output>
		</layer>
		<layer id="52" name="Constant_9" type="Const" version="opset1">
			<data element_type="i64" shape="2" offset="94476" size="16" />
			<rt_info>
				<attribute name="fused_names" version="0" value="Constant_9" />
			</rt_info>
			<output>
				<port id="0" precision="I64" names="onnx::Split_221">
					<dim>2</dim>
				</port>
			</output>
		</layer>
		<layer id="53" name="/model.2/Split" type="VariadicSplit" version="opset1">
			<rt_info>
				<attribute name="fused_names" version="0" value="/model.2/Split" />
			</rt_info>
			<input>
				<port id="0" precision="FP32">
					<dim>1</dim>
					<dim>128</dim>
					<dim>160</dim>
					<dim>160</dim>
				</port>
				<port id="1" precision="I64" />
				<port id="2" precision="I64">
					<dim>2</dim>
				</port>
			</input>
			<output>
				<port id="3" precision="FP32" names="/model.2/Split_output_0">
					<dim>1</dim>
					<dim>64</dim>
					<dim>160</dim>
					<dim>160</dim>
				</port>
				<port id="4" precision="FP32" names="/model.2/Split_output_1">
					<dim>1</dim>
					<dim>64</dim>
					<dim>160</dim>
					<dim>160</dim>
				</port>
			</output>
		</layer>
		<layer id="54" name="model.2.m.0.cv1.conv.weight" type="Const" version="opset1">
			<data element_type="i8" shape="64, 64, 3, 3" offset="94492" size="36864" />
			<rt_info>
				<attribute name="fused_names" version="0" value="model.2.m.0.cv1.conv.weight" />
			</rt_info>
			<output>
				<port id="0" precision="I8">
					<dim>64</dim>
					<dim>64</dim>
					<dim>3</dim>
					<dim>3</dim>
				</port>
			</output>
		</layer>
		<layer id="55" name="Convert_560177" type="Convert" version="opset1">
			<data destination_type="f32" />
			<rt_info>
				<attribute name="fused_names" version="0" value="model.2.m.0.cv1.conv.weight" />
			</rt_info>
			<input>
				<port id="0" precision="I8">
					<dim>64</dim>
					<dim>64</dim>
					<dim>3</dim>
					<dim>3</dim>
				</port>
			</input>
			<output>
				<port id="1" precision="FP32">
					<dim>64</dim>
					<dim>64</dim>
					<dim>3</dim>
					<dim>3</dim>
				</port>
			</output>
		</layer>
		<layer id="56" name="Constant_560075" type="Const" version="opset1">
			<data element_type="f32" shape="64, 1, 1, 1" offset="131356" size="256" />
			<rt_info>
				<attribute name="fused_names" version="0" value="model.2.m.0.cv1.conv.weight" />
			</rt_info>
			<output>
				<port id="0" precision="FP32">
					<dim>64</dim>
					<dim>1</dim>
					<dim>1</dim>
					<dim>1</dim>
				</port>
			</output>
		</layer>
		<layer id="57" name="/model.2/m.0/cv1/conv/Conv/WithoutBiases/fq_weights_1" type="Multiply" version="opset1">
			<data auto_broadcast="numpy" />
			<rt_info>
				<attribute name="fused_names" version="0" value="model.2.m.0.cv1.conv.weight" />
			</rt_info>
			<input>
				<port id="0" precision="FP32">
					<dim>64</dim>
					<dim>64</dim>
					<dim>3</dim>
					<dim>3</dim>
				</port>
				<port id="1" precision="FP32">
					<dim>64</dim>
					<dim>1</dim>
					<dim>1</dim>
					<dim>1</dim>
				</port>
			</input>
			<output>
				<port id="2" precision="FP32">
					<dim>64</dim>
					<dim>64</dim>
					<dim>3</dim>
					<dim>3</dim>
				</port>
			</output>
		</layer>
		<layer id="58" name="/model.2/m.0/cv1/conv/Conv/WithoutBiases" type="Convolution" version="opset1">
			<data strides="1, 1" dilations="1, 1" pads_begin="1, 1" pads_end="1, 1" auto_pad="explicit" />
			<rt_info>
				<attribute name="fused_names" version="0" value="/model.2/m.0/cv1/conv/Conv/WithoutBiases" />
			</rt_info>
			<input>
				<port id="0" precision="FP32">
					<dim>1</dim>
					<dim>64</dim>
					<dim>160</dim>
					<dim>160</dim>
				</port>
				<port id="1" precision="FP32">
					<dim>64</dim>
					<dim>64</dim>
					<dim>3</dim>
					<dim>3</dim>
				</port>
			</input>
			<output>
				<port id="2" precision="FP32">
					<dim>1</dim>
					<dim>64</dim>
					<dim>160</dim>
					<dim>160</dim>
				</port>
			</output>
		</layer>
		<layer id="59" name="Reshape_274" type="Const" version="opset1">
			<data element_type="f32" shape="1, 64, 1, 1" offset="131612" size="256" />
			<rt_info>
				<attribute name="fused_names" version="0" value="Reshape_274" />
			</rt_info>
			<output>
				<port id="0" precision="FP32">
					<dim>1</dim>
					<dim>64</dim>
					<dim>1</dim>
					<dim>1</dim>
				</port>
			</output>
		</layer>
		<layer id="60" name="/model.2/m.0/cv1/conv/Conv" type="Add" version="opset1">
			<data auto_broadcast="numpy" />
			<rt_info>
				<attribute name="fused_names" version="0" value="/model.2/m.0/cv1/conv/Conv" />
			</rt_info>
			<input>
				<port id="0" precision="FP32">
					<dim>1</dim>
					<dim>64</dim>
					<dim>160</dim>
					<dim>160</dim>
				</port>
				<port id="1" precision="FP32">
					<dim>1</dim>
					<dim>64</dim>
					<dim>1</dim>
					<dim>1</dim>
				</port>
			</input>
			<output>
				<port id="2" precision="FP32" names="/model.2/m.0/cv1/conv/Conv_output_0">
					<dim>1</dim>
					<dim>64</dim>
					<dim>160</dim>
					<dim>160</dim>
				</port>
			</output>
		</layer>
		<layer id="61" name="/model.2/m.0/cv1/act/Mul" type="Swish" version="opset4">
			<rt_info>
				<attribute name="fused_names" version="0" value="/model.2/m.0/cv1/act/Mul" />
			</rt_info>
			<input>
				<port id="0" precision="FP32">
					<dim>1</dim>
					<dim>64</dim>
					<dim>160</dim>
					<dim>160</dim>
				</port>
			</input>
			<output>
				<port id="1" precision="FP32" names="/model.2/m.0/cv1/act/Mul_output_0">
					<dim>1</dim>
					<dim>64</dim>
					<dim>160</dim>
					<dim>160</dim>
				</port>
			</output>
		</layer>
		<layer id="62" name="Constant_103448" type="Const" version="opset1">
			<data element_type="f32" shape="" offset="131868" size="4" />
			<rt_info>
				<attribute name="fused_names" version="0" value="Constant_103448" />
			</rt_info>
			<output>
				<port id="0" precision="FP32" />
			</output>
		</layer>
		<layer id="63" name="Constant_103449" type="Const" version="opset1">
			<data element_type="f32" shape="" offset="131872" size="4" />
			<rt_info>
				<attribute name="fused_names" version="0" value="Constant_103449" />
			</rt_info>
			<output>
				<port id="0" precision="FP32" />
			</output>
		</layer>
		<layer id="64" name="Constant_103450" type="Const" version="opset1">
			<data element_type="f32" shape="" offset="131868" size="4" />
			<rt_info>
				<attribute name="fused_names" version="0" value="Constant_103450" />
			</rt_info>
			<output>
				<port id="0" precision="FP32" />
			</output>
		</layer>
		<layer id="65" name="Constant_103451" type="Const" version="opset1">
			<data element_type="f32" shape="" offset="131872" size="4" />
			<rt_info>
				<attribute name="fused_names" version="0" value="Constant_103451" />
			</rt_info>
			<output>
				<port id="0" precision="FP32" />
			</output>
		</layer>
		<layer id="66" name="/model.2/m.0/cv1/act/Mul/fq_output_0" type="FakeQuantize" version="opset1">
			<data levels="256" auto_broadcast="numpy" />
			<rt_info>
				<attribute name="fused_names" version="0" value="/model.2/m.0/cv1/act/Mul/fq_output_0" />
			</rt_info>
			<input>
				<port id="0" precision="FP32">
					<dim>1</dim>
					<dim>64</dim>
					<dim>160</dim>
					<dim>160</dim>
				</port>
				<port id="1" precision="FP32" />
				<port id="2" precision="FP32" />
				<port id="3" precision="FP32" />
				<port id="4" precision="FP32" />
			</input>
			<output>
				<port id="5" precision="FP32">
					<dim>1</dim>
					<dim>64</dim>
					<dim>160</dim>
					<dim>160</dim>
				</port>
			</output>
		</layer>
		<layer id="67" name="model.2.m.0.cv2.conv.weight" type="Const" version="opset1">
			<data element_type="i8" shape="64, 64, 3, 3" offset="131876" size="36864" />
			<rt_info>
				<attribute name="fused_names" version="0" value="model.2.m.0.cv2.conv.weight" />
			</rt_info>
			<output>
				<port id="0" precision="I8">
					<dim>64</dim>
					<dim>64</dim>
					<dim>3</dim>
					<dim>3</dim>
				</port>
			</output>
		</layer>
		<layer id="68" name="Convert_560331" type="Convert" version="opset1">
			<data destination_type="f32" />
			<rt_info>
				<attribute name="fused_names" version="0" value="model.2.m.0.cv2.conv.weight" />
			</rt_info>
			<input>
				<port id="0" precision="I8">
					<dim>64</dim>
					<dim>64</dim>
					<dim>3</dim>
					<dim>3</dim>
				</port>
			</input>
			<output>
				<port id="1" precision="FP32">
					<dim>64</dim>
					<dim>64</dim>
					<dim>3</dim>
					<dim>3</dim>
				</port>
			</output>
		</layer>
		<layer id="69" name="Constant_560229" type="Const" version="opset1">
			<data element_type="f32" shape="64, 1, 1, 1" offset="168740" size="256" />
			<rt_info>
				<attribute name="fused_names" version="0" value="model.2.m.0.cv2.conv.weight" />
			</rt_info>
			<output>
				<port id="0" precision="FP32">
					<dim>64</dim>
					<dim>1</dim>
					<dim>1</dim>
					<dim>1</dim>
				</port>
			</output>
		</layer>
		<layer id="70" name="/model.2/m.0/cv2/conv/Conv/WithoutBiases/fq_weights_1" type="Multiply" version="opset1">
			<data auto_broadcast="numpy" />
			<rt_info>
				<attribute name="fused_names" version="0" value="model.2.m.0.cv2.conv.weight" />
			</rt_info>
			<input>
				<port id="0" precision="FP32">
					<dim>64</dim>
					<dim>64</dim>
					<dim>3</dim>
					<dim>3</dim>
				</port>
				<port id="1" precision="FP32">
					<dim>64</dim>
					<dim>1</dim>
					<dim>1</dim>
					<dim>1</dim>
				</port>
			</input>
			<output>
				<port id="2" precision="FP32">
					<dim>64</dim>
					<dim>64</dim>
					<dim>3</dim>
					<dim>3</dim>
				</port>
			</output>
		</layer>
		<layer id="71" name="/model.2/m.0/cv2/conv/Conv/WithoutBiases" type="Convolution" version="opset1">
			<data strides="1, 1" dilations="1, 1" pads_begin="1, 1" pads_end="1, 1" auto_pad="explicit" />
			<rt_info>
				<attribute name="fused_names" version="0" value="/model.2/m.0/cv2/conv/Conv/WithoutBiases" />
			</rt_info>
			<input>
				<port id="0" precision="FP32">
					<dim>1</dim>
					<dim>64</dim>
					<dim>160</dim>
					<dim>160</dim>
				</port>
				<port id="1" precision="FP32">
					<dim>64</dim>
					<dim>64</dim>
					<dim>3</dim>
					<dim>3</dim>
				</port>
			</input>
			<output>
				<port id="2" precision="FP32">
					<dim>1</dim>
					<dim>64</dim>
					<dim>160</dim>
					<dim>160</dim>
				</port>
			</output>
		</layer>
		<layer id="72" name="Reshape_291" type="Const" version="opset1">
			<data element_type="f32" shape="1, 64, 1, 1" offset="168996" size="256" />
			<rt_info>
				<attribute name="fused_names" version="0" value="Reshape_291" />
			</rt_info>
			<output>
				<port id="0" precision="FP32">
					<dim>1</dim>
					<dim>64</dim>
					<dim>1</dim>
					<dim>1</dim>
				</port>
			</output>
		</layer>
		<layer id="73" name="/model.2/m.0/cv2/conv/Conv" type="Add" version="opset1">
			<data auto_broadcast="numpy" />
			<rt_info>
				<attribute name="fused_names" version="0" value="/model.2/m.0/cv2/conv/Conv" />
			</rt_info>
			<input>
				<port id="0" precision="FP32">
					<dim>1</dim>
					<dim>64</dim>
					<dim>160</dim>
					<dim>160</dim>
				</port>
				<port id="1" precision="FP32">
					<dim>1</dim>
					<dim>64</dim>
					<dim>1</dim>
					<dim>1</dim>
				</port>
			</input>
			<output>
				<port id="2" precision="FP32" names="/model.2/m.0/cv2/conv/Conv_output_0">
					<dim>1</dim>
					<dim>64</dim>
					<dim>160</dim>
					<dim>160</dim>
				</port>
			</output>
		</layer>
		<layer id="74" name="/model.2/m.0/cv2/act/Mul" type="Swish" version="opset4">
			<rt_info>
				<attribute name="fused_names" version="0" value="/model.2/m.0/cv2/act/Mul" />
			</rt_info>
			<input>
				<port id="0" precision="FP32">
					<dim>1</dim>
					<dim>64</dim>
					<dim>160</dim>
					<dim>160</dim>
				</port>
			</input>
			<output>
				<port id="1" precision="FP32" names="/model.2/m.0/cv2/act/Mul_output_0">
					<dim>1</dim>
					<dim>64</dim>
					<dim>160</dim>
					<dim>160</dim>
				</port>
			</output>
		</layer>
		<layer id="75" name="Constant_103458" type="Const" version="opset1">
			<data element_type="f32" shape="" offset="169252" size="4" />
			<rt_info>
				<attribute name="fused_names" version="0" value="Constant_103458" />
			</rt_info>
			<output>
				<port id="0" precision="FP32" />
			</output>
		</layer>
		<layer id="76" name="Constant_103459" type="Const" version="opset1">
			<data element_type="f32" shape="" offset="169256" size="4" />
			<rt_info>
				<attribute name="fused_names" version="0" value="Constant_103459" />
			</rt_info>
			<output>
				<port id="0" precision="FP32" />
			</output>
		</layer>
		<layer id="77" name="Constant_103460" type="Const" version="opset1">
			<data element_type="f32" shape="" offset="169252" size="4" />
			<rt_info>
				<attribute name="fused_names" version="0" value="Constant_103460" />
			</rt_info>
			<output>
				<port id="0" precision="FP32" />
			</output>
		</layer>
		<layer id="78" name="Constant_103461" type="Const" version="opset1">
			<data element_type="f32" shape="" offset="169256" size="4" />
			<rt_info>
				<attribute name="fused_names" version="0" value="Constant_103461" />
			</rt_info>
			<output>
				<port id="0" precision="FP32" />
			</output>
		</layer>
		<layer id="79" name="/model.2/m.0/cv2/act/Mul/fq_output_0" type="FakeQuantize" version="opset1">
			<data levels="256" auto_broadcast="numpy" />
			<rt_info>
				<attribute name="fused_names" version="0" value="/model.2/m.0/cv2/act/Mul/fq_output_0" />
			</rt_info>
			<input>
				<port id="0" precision="FP32">
					<dim>1</dim>
					<dim>64</dim>
					<dim>160</dim>
					<dim>160</dim>
				</port>
				<port id="1" precision="FP32" />
				<port id="2" precision="FP32" />
				<port id="3" precision="FP32" />
				<port id="4" precision="FP32" />
			</input>
			<output>
				<port id="5" precision="FP32">
					<dim>1</dim>
					<dim>64</dim>
					<dim>160</dim>
					<dim>160</dim>
				</port>
			</output>
		</layer>
		<layer id="80" name="/model.2/m.0/Add" type="Add" version="opset1">
			<data auto_broadcast="numpy" />
			<rt_info>
				<attribute name="fused_names" version="0" value="/model.2/m.0/Add" />
			</rt_info>
			<input>
				<port id="0" precision="FP32">
					<dim>1</dim>
					<dim>64</dim>
					<dim>160</dim>
					<dim>160</dim>
				</port>
				<port id="1" precision="FP32">
					<dim>1</dim>
					<dim>64</dim>
					<dim>160</dim>
					<dim>160</dim>
				</port>
			</input>
			<output>
				<port id="2" precision="FP32" names="/model.2/m.0/Add_output_0">
					<dim>1</dim>
					<dim>64</dim>
					<dim>160</dim>
					<dim>160</dim>
				</port>
			</output>
		</layer>
		<layer id="81" name="Constant_103183" type="Const" version="opset1">
			<data element_type="f32" shape="" offset="94460" size="4" />
			<rt_info>
				<attribute name="fused_names" version="0" value="Constant_103183" />
			</rt_info>
			<output>
				<port id="0" precision="FP32" />
			</output>
		</layer>
		<layer id="82" name="Constant_103184" type="Const" version="opset1">
			<data element_type="f32" shape="" offset="94464" size="4" />
			<rt_info>
				<attribute name="fused_names" version="0" value="Constant_103184" />
			</rt_info>
			<output>
				<port id="0" precision="FP32" />
			</output>
		</layer>
		<layer id="83" name="Constant_103185" type="Const" version="opset1">
			<data element_type="f32" shape="" offset="94460" size="4" />
			<rt_info>
				<attribute name="fused_names" version="0" value="Constant_103185" />
			</rt_info>
			<output>
				<port id="0" precision="FP32" />
			</output>
		</layer>
		<layer id="84" name="Constant_103186" type="Const" version="opset1">
			<data element_type="f32" shape="" offset="94464" size="4" />
			<rt_info>
				<attribute name="fused_names" version="0" value="Constant_103186" />
			</rt_info>
			<output>
				<port id="0" precision="FP32" />
			</output>
		</layer>
		<layer id="85" name="/model.2/m.0/Add/fq_output_0" type="FakeQuantize" version="opset1">
			<data levels="256" auto_broadcast="numpy" />
			<rt_info>
				<attribute name="fused_names" version="0" value="/model.2/m.0/Add/fq_output_0" />
			</rt_info>
			<input>
				<port id="0" precision="FP32">
					<dim>1</dim>
					<dim>64</dim>
					<dim>160</dim>
					<dim>160</dim>
				</port>
				<port id="1" precision="FP32" />
				<port id="2" precision="FP32" />
				<port id="3" precision="FP32" />
				<port id="4" precision="FP32" />
			</input>
			<output>
				<port id="5" precision="FP32">
					<dim>1</dim>
					<dim>64</dim>
					<dim>160</dim>
					<dim>160</dim>
				</port>
			</output>
		</layer>
		<layer id="86" name="model.2.m.1.cv1.conv.weight" type="Const" version="opset1">
			<data element_type="i8" shape="64, 64, 3, 3" offset="169260" size="36864" />
			<rt_info>
				<attribute name="fused_names" version="0" value="model.2.m.1.cv1.conv.weight" />
			</rt_info>
			<output>
				<port id="0" precision="I8">
					<dim>64</dim>
					<dim>64</dim>
					<dim>3</dim>
					<dim>3</dim>
				</port>
			</output>
		</layer>
		<layer id="87" name="Convert_560485" type="Convert" version="opset1">
			<data destination_type="f32" />
			<rt_info>
				<attribute name="fused_names" version="0" value="model.2.m.1.cv1.conv.weight" />
			</rt_info>
			<input>
				<port id="0" precision="I8">
					<dim>64</dim>
					<dim>64</dim>
					<dim>3</dim>
					<dim>3</dim>
				</port>
			</input>
			<output>
				<port id="1" precision="FP32">
					<dim>64</dim>
					<dim>64</dim>
					<dim>3</dim>
					<dim>3</dim>
				</port>
			</output>
		</layer>
		<layer id="88" name="Constant_560383" type="Const" version="opset1">
			<data element_type="f32" shape="64, 1, 1, 1" offset="206124" size="256" />
			<rt_info>
				<attribute name="fused_names" version="0" value="model.2.m.1.cv1.conv.weight" />
			</rt_info>
			<output>
				<port id="0" precision="FP32">
					<dim>64</dim>
					<dim>1</dim>
					<dim>1</dim>
					<dim>1</dim>
				</port>
			</output>
		</layer>
		<layer id="89" name="/model.2/m.1/cv1/conv/Conv/WithoutBiases/fq_weights_1" type="Multiply" version="opset1">
			<data auto_broadcast="numpy" />
			<rt_info>
				<attribute name="fused_names" version="0" value="model.2.m.1.cv1.conv.weight" />
			</rt_info>
			<input>
				<port id="0" precision="FP32">
					<dim>64</dim>
					<dim>64</dim>
					<dim>3</dim>
					<dim>3</dim>
				</port>
				<port id="1" precision="FP32">
					<dim>64</dim>
					<dim>1</dim>
					<dim>1</dim>
					<dim>1</dim>
				</port>
			</input>
			<output>
				<port id="2" precision="FP32">
					<dim>64</dim>
					<dim>64</dim>
					<dim>3</dim>
					<dim>3</dim>
				</port>
			</output>
		</layer>
		<layer id="90" name="/model.2/m.1/cv1/conv/Conv/WithoutBiases" type="Convolution" version="opset1">
			<data strides="1, 1" dilations="1, 1" pads_begin="1, 1" pads_end="1, 1" auto_pad="explicit" />
			<rt_info>
				<attribute name="fused_names" version="0" value="/model.2/m.1/cv1/conv/Conv/WithoutBiases" />
			</rt_info>
			<input>
				<port id="0" precision="FP32">
					<dim>1</dim>
					<dim>64</dim>
					<dim>160</dim>
					<dim>160</dim>
				</port>
				<port id="1" precision="FP32">
					<dim>64</dim>
					<dim>64</dim>
					<dim>3</dim>
					<dim>3</dim>
				</port>
			</input>
			<output>
				<port id="2" precision="FP32">
					<dim>1</dim>
					<dim>64</dim>
					<dim>160</dim>
					<dim>160</dim>
				</port>
			</output>
		</layer>
		<layer id="91" name="Reshape_309" type="Const" version="opset1">
			<data element_type="f32" shape="1, 64, 1, 1" offset="206380" size="256" />
			<rt_info>
				<attribute name="fused_names" version="0" value="Reshape_309" />
			</rt_info>
			<output>
				<port id="0" precision="FP32">
					<dim>1</dim>
					<dim>64</dim>
					<dim>1</dim>
					<dim>1</dim>
				</port>
			</output>
		</layer>
		<layer id="92" name="/model.2/m.1/cv1/conv/Conv" type="Add" version="opset1">
			<data auto_broadcast="numpy" />
			<rt_info>
				<attribute name="fused_names" version="0" value="/model.2/m.1/cv1/conv/Conv" />
			</rt_info>
			<input>
				<port id="0" precision="FP32">
					<dim>1</dim>
					<dim>64</dim>
					<dim>160</dim>
					<dim>160</dim>
				</port>
				<port id="1" precision="FP32">
					<dim>1</dim>
					<dim>64</dim>
					<dim>1</dim>
					<dim>1</dim>
				</port>
			</input>
			<output>
				<port id="2" precision="FP32" names="/model.2/m.1/cv1/conv/Conv_output_0">
					<dim>1</dim>
					<dim>64</dim>
					<dim>160</dim>
					<dim>160</dim>
				</port>
			</output>
		</layer>
		<layer id="93" name="/model.2/m.1/cv1/act/Mul" type="Swish" version="opset4">
			<rt_info>
				<attribute name="fused_names" version="0" value="/model.2/m.1/cv1/act/Mul" />
			</rt_info>
			<input>
				<port id="0" precision="FP32">
					<dim>1</dim>
					<dim>64</dim>
					<dim>160</dim>
					<dim>160</dim>
				</port>
			</input>
			<output>
				<port id="1" precision="FP32" names="/model.2/m.1/cv1/act/Mul_output_0">
					<dim>1</dim>
					<dim>64</dim>
					<dim>160</dim>
					<dim>160</dim>
				</port>
			</output>
		</layer>
		<layer id="94" name="Constant_103468" type="Const" version="opset1">
			<data element_type="f32" shape="" offset="2292" size="4" />
			<rt_info>
				<attribute name="fused_names" version="0" value="Constant_103468" />
			</rt_info>
			<output>
				<port id="0" precision="FP32" />
			</output>
		</layer>
		<layer id="95" name="Constant_103469" type="Const" version="opset1">
			<data element_type="f32" shape="" offset="206636" size="4" />
			<rt_info>
				<attribute name="fused_names" version="0" value="Constant_103469" />
			</rt_info>
			<output>
				<port id="0" precision="FP32" />
			</output>
		</layer>
		<layer id="96" name="Constant_103470" type="Const" version="opset1">
			<data element_type="f32" shape="" offset="2292" size="4" />
			<rt_info>
				<attribute name="fused_names" version="0" value="Constant_103470" />
			</rt_info>
			<output>
				<port id="0" precision="FP32" />
			</output>
		</layer>
		<layer id="97" name="Constant_103471" type="Const" version="opset1">
			<data element_type="f32" shape="" offset="206636" size="4" />
			<rt_info>
				<attribute name="fused_names" version="0" value="Constant_103471" />
			</rt_info>
			<output>
				<port id="0" precision="FP32" />
			</output>
		</layer>
		<layer id="98" name="/model.2/m.1/cv1/act/Mul/fq_output_0" type="FakeQuantize" version="opset1">
			<data levels="256" auto_broadcast="numpy" />
			<rt_info>
				<attribute name="fused_names" version="0" value="/model.2/m.1/cv1/act/Mul/fq_output_0" />
			</rt_info>
			<input>
				<port id="0" precision="FP32">
					<dim>1</dim>
					<dim>64</dim>
					<dim>160</dim>
					<dim>160</dim>
				</port>
				<port id="1" precision="FP32" />
				<port id="2" precision="FP32" />
				<port id="3" precision="FP32" />
				<port id="4" precision="FP32" />
			</input>
			<output>
				<port id="5" precision="FP32">
					<dim>1</dim>
					<dim>64</dim>
					<dim>160</dim>
					<dim>160</dim>
				</port>
			</output>
		</layer>
		<layer id="99" name="model.2.m.1.cv2.conv.weight" type="Const" version="opset1">
			<data element_type="i8" shape="64, 64, 3, 3" offset="206640" size="36864" />
			<rt_info>
				<attribute name="fused_names" version="0" value="model.2.m.1.cv2.conv.weight" />
			</rt_info>
			<output>
				<port id="0" precision="I8">
					<dim>64</dim>
					<dim>64</dim>
					<dim>3</dim>
					<dim>3</dim>
				</port>
			</output>
		</layer>
		<layer id="100" name="Convert_560639" type="Convert" version="opset1">
			<data destination_type="f32" />
			<rt_info>
				<attribute name="fused_names" version="0" value="model.2.m.1.cv2.conv.weight" />
			</rt_info>
			<input>
				<port id="0" precision="I8">
					<dim>64</dim>
					<dim>64</dim>
					<dim>3</dim>
					<dim>3</dim>
				</port>
			</input>
			<output>
				<port id="1" precision="FP32">
					<dim>64</dim>
					<dim>64</dim>
					<dim>3</dim>
					<dim>3</dim>
				</port>
			</output>
		</layer>
		<layer id="101" name="Constant_560537" type="Const" version="opset1">
			<data element_type="f32" shape="64, 1, 1, 1" offset="243504" size="256" />
			<rt_info>
				<attribute name="fused_names" version="0" value="model.2.m.1.cv2.conv.weight" />
			</rt_info>
			<output>
				<port id="0" precision="FP32">
					<dim>64</dim>
					<dim>1</dim>
					<dim>1</dim>
					<dim>1</dim>
				</port>
			</output>
		</layer>
		<layer id="102" name="/model.2/m.1/cv2/conv/Conv/WithoutBiases/fq_weights_1" type="Multiply" version="opset1">
			<data auto_broadcast="numpy" />
			<rt_info>
				<attribute name="fused_names" version="0" value="model.2.m.1.cv2.conv.weight" />
			</rt_info>
			<input>
				<port id="0" precision="FP32">
					<dim>64</dim>
					<dim>64</dim>
					<dim>3</dim>
					<dim>3</dim>
				</port>
				<port id="1" precision="FP32">
					<dim>64</dim>
					<dim>1</dim>
					<dim>1</dim>
					<dim>1</dim>
				</port>
			</input>
			<output>
				<port id="2" precision="FP32">
					<dim>64</dim>
					<dim>64</dim>
					<dim>3</dim>
					<dim>3</dim>
				</port>
			</output>
		</layer>
		<layer id="103" name="/model.2/m.1/cv2/conv/Conv/WithoutBiases" type="Convolution" version="opset1">
			<data strides="1, 1" dilations="1, 1" pads_begin="1, 1" pads_end="1, 1" auto_pad="explicit" />
			<rt_info>
				<attribute name="fused_names" version="0" value="/model.2/m.1/cv2/conv/Conv/WithoutBiases" />
			</rt_info>
			<input>
				<port id="0" precision="FP32">
					<dim>1</dim>
					<dim>64</dim>
					<dim>160</dim>
					<dim>160</dim>
				</port>
				<port id="1" precision="FP32">
					<dim>64</dim>
					<dim>64</dim>
					<dim>3</dim>
					<dim>3</dim>
				</port>
			</input>
			<output>
				<port id="2" precision="FP32">
					<dim>1</dim>
					<dim>64</dim>
					<dim>160</dim>
					<dim>160</dim>
				</port>
			</output>
		</layer>
		<layer id="104" name="Reshape_326" type="Const" version="opset1">
			<data element_type="f32" shape="1, 64, 1, 1" offset="243760" size="256" />
			<rt_info>
				<attribute name="fused_names" version="0" value="Reshape_326" />
			</rt_info>
			<output>
				<port id="0" precision="FP32">
					<dim>1</dim>
					<dim>64</dim>
					<dim>1</dim>
					<dim>1</dim>
				</port>
			</output>
		</layer>
		<layer id="105" name="/model.2/m.1/cv2/conv/Conv" type="Add" version="opset1">
			<data auto_broadcast="numpy" />
			<rt_info>
				<attribute name="fused_names" version="0" value="/model.2/m.1/cv2/conv/Conv" />
			</rt_info>
			<input>
				<port id="0" precision="FP32">
					<dim>1</dim>
					<dim>64</dim>
					<dim>160</dim>
					<dim>160</dim>
				</port>
				<port id="1" precision="FP32">
					<dim>1</dim>
					<dim>64</dim>
					<dim>1</dim>
					<dim>1</dim>
				</port>
			</input>
			<output>
				<port id="2" precision="FP32" names="/model.2/m.1/cv2/conv/Conv_output_0">
					<dim>1</dim>
					<dim>64</dim>
					<dim>160</dim>
					<dim>160</dim>
				</port>
			</output>
		</layer>
		<layer id="106" name="/model.2/m.1/cv2/act/Mul" type="Swish" version="opset4">
			<rt_info>
				<attribute name="fused_names" version="0" value="/model.2/m.1/cv2/act/Mul" />
			</rt_info>
			<input>
				<port id="0" precision="FP32">
					<dim>1</dim>
					<dim>64</dim>
					<dim>160</dim>
					<dim>160</dim>
				</port>
			</input>
			<output>
				<port id="1" precision="FP32" names="/model.2/m.1/cv2/act/Mul_output_0">
					<dim>1</dim>
					<dim>64</dim>
					<dim>160</dim>
					<dim>160</dim>
				</port>
			</output>
		</layer>
		<layer id="107" name="Constant_103478" type="Const" version="opset1">
			<data element_type="f32" shape="" offset="2292" size="4" />
			<rt_info>
				<attribute name="fused_names" version="0" value="Constant_103478" />
			</rt_info>
			<output>
				<port id="0" precision="FP32" />
			</output>
		</layer>
		<layer id="108" name="Constant_103479" type="Const" version="opset1">
			<data element_type="f32" shape="" offset="206636" size="4" />
			<rt_info>
				<attribute name="fused_names" version="0" value="Constant_103479" />
			</rt_info>
			<output>
				<port id="0" precision="FP32" />
			</output>
		</layer>
		<layer id="109" name="Constant_103480" type="Const" version="opset1">
			<data element_type="f32" shape="" offset="2292" size="4" />
			<rt_info>
				<attribute name="fused_names" version="0" value="Constant_103480" />
			</rt_info>
			<output>
				<port id="0" precision="FP32" />
			</output>
		</layer>
		<layer id="110" name="Constant_103481" type="Const" version="opset1">
			<data element_type="f32" shape="" offset="206636" size="4" />
			<rt_info>
				<attribute name="fused_names" version="0" value="Constant_103481" />
			</rt_info>
			<output>
				<port id="0" precision="FP32" />
			</output>
		</layer>
		<layer id="111" name="/model.2/m.1/cv2/act/Mul/fq_output_0" type="FakeQuantize" version="opset1">
			<data levels="256" auto_broadcast="numpy" />
			<rt_info>
				<attribute name="fused_names" version="0" value="/model.2/m.1/cv2/act/Mul/fq_output_0" />
			</rt_info>
			<input>
				<port id="0" precision="FP32">
					<dim>1</dim>
					<dim>64</dim>
					<dim>160</dim>
					<dim>160</dim>
				</port>
				<port id="1" precision="FP32" />
				<port id="2" precision="FP32" />
				<port id="3" precision="FP32" />
				<port id="4" precision="FP32" />
			</input>
			<output>
				<port id="5" precision="FP32">
					<dim>1</dim>
					<dim>64</dim>
					<dim>160</dim>
					<dim>160</dim>
				</port>
			</output>
		</layer>
		<layer id="112" name="/model.2/m.1/Add" type="Add" version="opset1">
			<data auto_broadcast="numpy" />
			<rt_info>
				<attribute name="fused_names" version="0" value="/model.2/m.1/Add" />
			</rt_info>
			<input>
				<port id="0" precision="FP32">
					<dim>1</dim>
					<dim>64</dim>
					<dim>160</dim>
					<dim>160</dim>
				</port>
				<port id="1" precision="FP32">
					<dim>1</dim>
					<dim>64</dim>
					<dim>160</dim>
					<dim>160</dim>
				</port>
			</input>
			<output>
				<port id="2" precision="FP32" names="/model.2/m.1/Add_output_0">
					<dim>1</dim>
					<dim>64</dim>
					<dim>160</dim>
					<dim>160</dim>
				</port>
			</output>
		</layer>
		<layer id="113" name="Constant_103193" type="Const" version="opset1">
			<data element_type="f32" shape="" offset="94460" size="4" />
			<rt_info>
				<attribute name="fused_names" version="0" value="Constant_103193" />
			</rt_info>
			<output>
				<port id="0" precision="FP32" />
			</output>
		</layer>
		<layer id="114" name="Constant_103194" type="Const" version="opset1">
			<data element_type="f32" shape="" offset="94464" size="4" />
			<rt_info>
				<attribute name="fused_names" version="0" value="Constant_103194" />
			</rt_info>
			<output>
				<port id="0" precision="FP32" />
			</output>
		</layer>
		<layer id="115" name="Constant_103195" type="Const" version="opset1">
			<data element_type="f32" shape="" offset="94460" size="4" />
			<rt_info>
				<attribute name="fused_names" version="0" value="Constant_103195" />
			</rt_info>
			<output>
				<port id="0" precision="FP32" />
			</output>
		</layer>
		<layer id="116" name="Constant_103196" type="Const" version="opset1">
			<data element_type="f32" shape="" offset="94464" size="4" />
			<rt_info>
				<attribute name="fused_names" version="0" value="Constant_103196" />
			</rt_info>
			<output>
				<port id="0" precision="FP32" />
			</output>
		</layer>
		<layer id="117" name="/model.2/m.1/Add/fq_output_0" type="FakeQuantize" version="opset1">
			<data levels="256" auto_broadcast="numpy" />
			<rt_info>
				<attribute name="fused_names" version="0" value="/model.2/m.1/Add/fq_output_0" />
			</rt_info>
			<input>
				<port id="0" precision="FP32">
					<dim>1</dim>
					<dim>64</dim>
					<dim>160</dim>
					<dim>160</dim>
				</port>
				<port id="1" precision="FP32" />
				<port id="2" precision="FP32" />
				<port id="3" precision="FP32" />
				<port id="4" precision="FP32" />
			</input>
			<output>
				<port id="5" precision="FP32">
					<dim>1</dim>
					<dim>64</dim>
					<dim>160</dim>
					<dim>160</dim>
				</port>
			</output>
		</layer>
		<layer id="118" name="model.2.m.2.cv1.conv.weight" type="Const" version="opset1">
			<data element_type="i8" shape="64, 64, 3, 3" offset="244016" size="36864" />
			<rt_info>
				<attribute name="fused_names" version="0" value="model.2.m.2.cv1.conv.weight" />
			</rt_info>
			<output>
				<port id="0" precision="I8">
					<dim>64</dim>
					<dim>64</dim>
					<dim>3</dim>
					<dim>3</dim>
				</port>
			</output>
		</layer>
		<layer id="119" name="Convert_560793" type="Convert" version="opset1">
			<data destination_type="f32" />
			<rt_info>
				<attribute name="fused_names" version="0" value="model.2.m.2.cv1.conv.weight" />
			</rt_info>
			<input>
				<port id="0" precision="I8">
					<dim>64</dim>
					<dim>64</dim>
					<dim>3</dim>
					<dim>3</dim>
				</port>
			</input>
			<output>
				<port id="1" precision="FP32">
					<dim>64</dim>
					<dim>64</dim>
					<dim>3</dim>
					<dim>3</dim>
				</port>
			</output>
		</layer>
		<layer id="120" name="Constant_560691" type="Const" version="opset1">
			<data element_type="f32" shape="64, 1, 1, 1" offset="280880" size="256" />
			<rt_info>
				<attribute name="fused_names" version="0" value="model.2.m.2.cv1.conv.weight" />
			</rt_info>
			<output>
				<port id="0" precision="FP32">
					<dim>64</dim>
					<dim>1</dim>
					<dim>1</dim>
					<dim>1</dim>
				</port>
			</output>
		</layer>
		<layer id="121" name="/model.2/m.2/cv1/conv/Conv/WithoutBiases/fq_weights_1" type="Multiply" version="opset1">
			<data auto_broadcast="numpy" />
			<rt_info>
				<attribute name="fused_names" version="0" value="model.2.m.2.cv1.conv.weight" />
			</rt_info>
			<input>
				<port id="0" precision="FP32">
					<dim>64</dim>
					<dim>64</dim>
					<dim>3</dim>
					<dim>3</dim>
				</port>
				<port id="1" precision="FP32">
					<dim>64</dim>
					<dim>1</dim>
					<dim>1</dim>
					<dim>1</dim>
				</port>
			</input>
			<output>
				<port id="2" precision="FP32">
					<dim>64</dim>
					<dim>64</dim>
					<dim>3</dim>
					<dim>3</dim>
				</port>
			</output>
		</layer>
		<layer id="122" name="/model.2/m.2/cv1/conv/Conv/WithoutBiases" type="Convolution" version="opset1">
			<data strides="1, 1" dilations="1, 1" pads_begin="1, 1" pads_end="1, 1" auto_pad="explicit" />
			<rt_info>
				<attribute name="fused_names" version="0" value="/model.2/m.2/cv1/conv/Conv/WithoutBiases" />
			</rt_info>
			<input>
				<port id="0" precision="FP32">
					<dim>1</dim>
					<dim>64</dim>
					<dim>160</dim>
					<dim>160</dim>
				</port>
				<port id="1" precision="FP32">
					<dim>64</dim>
					<dim>64</dim>
					<dim>3</dim>
					<dim>3</dim>
				</port>
			</input>
			<output>
				<port id="2" precision="FP32">
					<dim>1</dim>
					<dim>64</dim>
					<dim>160</dim>
					<dim>160</dim>
				</port>
			</output>
		</layer>
		<layer id="123" name="Reshape_344" type="Const" version="opset1">
			<data element_type="f32" shape="1, 64, 1, 1" offset="281136" size="256" />
			<rt_info>
				<attribute name="fused_names" version="0" value="Reshape_344" />
			</rt_info>
			<output>
				<port id="0" precision="FP32">
					<dim>1</dim>
					<dim>64</dim>
					<dim>1</dim>
					<dim>1</dim>
				</port>
			</output>
		</layer>
		<layer id="124" name="/model.2/m.2/cv1/conv/Conv" type="Add" version="opset1">
			<data auto_broadcast="numpy" />
			<rt_info>
				<attribute name="fused_names" version="0" value="/model.2/m.2/cv1/conv/Conv" />
			</rt_info>
			<input>
				<port id="0" precision="FP32">
					<dim>1</dim>
					<dim>64</dim>
					<dim>160</dim>
					<dim>160</dim>
				</port>
				<port id="1" precision="FP32">
					<dim>1</dim>
					<dim>64</dim>
					<dim>1</dim>
					<dim>1</dim>
				</port>
			</input>
			<output>
				<port id="2" precision="FP32" names="/model.2/m.2/cv1/conv/Conv_output_0">
					<dim>1</dim>
					<dim>64</dim>
					<dim>160</dim>
					<dim>160</dim>
				</port>
			</output>
		</layer>
		<layer id="125" name="/model.2/m.2/cv1/act/Mul" type="Swish" version="opset4">
			<rt_info>
				<attribute name="fused_names" version="0" value="/model.2/m.2/cv1/act/Mul" />
			</rt_info>
			<input>
				<port id="0" precision="FP32">
					<dim>1</dim>
					<dim>64</dim>
					<dim>160</dim>
					<dim>160</dim>
				</port>
			</input>
			<output>
				<port id="1" precision="FP32" names="/model.2/m.2/cv1/act/Mul_output_0">
					<dim>1</dim>
					<dim>64</dim>
					<dim>160</dim>
					<dim>160</dim>
				</port>
			</output>
		</layer>
		<layer id="126" name="Constant_103488" type="Const" version="opset1">
			<data element_type="f32" shape="" offset="281392" size="4" />
			<rt_info>
				<attribute name="fused_names" version="0" value="Constant_103488" />
			</rt_info>
			<output>
				<port id="0" precision="FP32" />
			</output>
		</layer>
		<layer id="127" name="Constant_103489" type="Const" version="opset1">
			<data element_type="f32" shape="" offset="281396" size="4" />
			<rt_info>
				<attribute name="fused_names" version="0" value="Constant_103489" />
			</rt_info>
			<output>
				<port id="0" precision="FP32" />
			</output>
		</layer>
		<layer id="128" name="Constant_103490" type="Const" version="opset1">
			<data element_type="f32" shape="" offset="281392" size="4" />
			<rt_info>
				<attribute name="fused_names" version="0" value="Constant_103490" />
			</rt_info>
			<output>
				<port id="0" precision="FP32" />
			</output>
		</layer>
		<layer id="129" name="Constant_103491" type="Const" version="opset1">
			<data element_type="f32" shape="" offset="281396" size="4" />
			<rt_info>
				<attribute name="fused_names" version="0" value="Constant_103491" />
			</rt_info>
			<output>
				<port id="0" precision="FP32" />
			</output>
		</layer>
		<layer id="130" name="/model.2/m.2/cv1/act/Mul/fq_output_0" type="FakeQuantize" version="opset1">
			<data levels="256" auto_broadcast="numpy" />
			<rt_info>
				<attribute name="fused_names" version="0" value="/model.2/m.2/cv1/act/Mul/fq_output_0" />
			</rt_info>
			<input>
				<port id="0" precision="FP32">
					<dim>1</dim>
					<dim>64</dim>
					<dim>160</dim>
					<dim>160</dim>
				</port>
				<port id="1" precision="FP32" />
				<port id="2" precision="FP32" />
				<port id="3" precision="FP32" />
				<port id="4" precision="FP32" />
			</input>
			<output>
				<port id="5" precision="FP32">
					<dim>1</dim>
					<dim>64</dim>
					<dim>160</dim>
					<dim>160</dim>
				</port>
			</output>
		</layer>
		<layer id="131" name="model.2.m.2.cv2.conv.weight" type="Const" version="opset1">
			<data element_type="i8" shape="64, 64, 3, 3" offset="281400" size="36864" />
			<rt_info>
				<attribute name="fused_names" version="0" value="model.2.m.2.cv2.conv.weight" />
			</rt_info>
			<output>
				<port id="0" precision="I8">
					<dim>64</dim>
					<dim>64</dim>
					<dim>3</dim>
					<dim>3</dim>
				</port>
			</output>
		</layer>
		<layer id="132" name="Convert_560947" type="Convert" version="opset1">
			<data destination_type="f32" />
			<rt_info>
				<attribute name="fused_names" version="0" value="model.2.m.2.cv2.conv.weight" />
			</rt_info>
			<input>
				<port id="0" precision="I8">
					<dim>64</dim>
					<dim>64</dim>
					<dim>3</dim>
					<dim>3</dim>
				</port>
			</input>
			<output>
				<port id="1" precision="FP32">
					<dim>64</dim>
					<dim>64</dim>
					<dim>3</dim>
					<dim>3</dim>
				</port>
			</output>
		</layer>
		<layer id="133" name="Constant_560845" type="Const" version="opset1">
			<data element_type="f32" shape="64, 1, 1, 1" offset="318264" size="256" />
			<rt_info>
				<attribute name="fused_names" version="0" value="model.2.m.2.cv2.conv.weight" />
			</rt_info>
			<output>
				<port id="0" precision="FP32">
					<dim>64</dim>
					<dim>1</dim>
					<dim>1</dim>
					<dim>1</dim>
				</port>
			</output>
		</layer>
		<layer id="134" name="/model.2/m.2/cv2/conv/Conv/WithoutBiases/fq_weights_1" type="Multiply" version="opset1">
			<data auto_broadcast="numpy" />
			<rt_info>
				<attribute name="fused_names" version="0" value="model.2.m.2.cv2.conv.weight" />
			</rt_info>
			<input>
				<port id="0" precision="FP32">
					<dim>64</dim>
					<dim>64</dim>
					<dim>3</dim>
					<dim>3</dim>
				</port>
				<port id="1" precision="FP32">
					<dim>64</dim>
					<dim>1</dim>
					<dim>1</dim>
					<dim>1</dim>
				</port>
			</input>
			<output>
				<port id="2" precision="FP32">
					<dim>64</dim>
					<dim>64</dim>
					<dim>3</dim>
					<dim>3</dim>
				</port>
			</output>
		</layer>
		<layer id="135" name="/model.2/m.2/cv2/conv/Conv/WithoutBiases" type="Convolution" version="opset1">
			<data strides="1, 1" dilations="1, 1" pads_begin="1, 1" pads_end="1, 1" auto_pad="explicit" />
			<rt_info>
				<attribute name="fused_names" version="0" value="/model.2/m.2/cv2/conv/Conv/WithoutBiases" />
			</rt_info>
			<input>
				<port id="0" precision="FP32">
					<dim>1</dim>
					<dim>64</dim>
					<dim>160</dim>
					<dim>160</dim>
				</port>
				<port id="1" precision="FP32">
					<dim>64</dim>
					<dim>64</dim>
					<dim>3</dim>
					<dim>3</dim>
				</port>
			</input>
			<output>
				<port id="2" precision="FP32">
					<dim>1</dim>
					<dim>64</dim>
					<dim>160</dim>
					<dim>160</dim>
				</port>
			</output>
		</layer>
		<layer id="136" name="Reshape_361" type="Const" version="opset1">
			<data element_type="f32" shape="1, 64, 1, 1" offset="318520" size="256" />
			<rt_info>
				<attribute name="fused_names" version="0" value="Reshape_361" />
			</rt_info>
			<output>
				<port id="0" precision="FP32">
					<dim>1</dim>
					<dim>64</dim>
					<dim>1</dim>
					<dim>1</dim>
				</port>
			</output>
		</layer>
		<layer id="137" name="/model.2/m.2/cv2/conv/Conv" type="Add" version="opset1">
			<data auto_broadcast="numpy" />
			<rt_info>
				<attribute name="fused_names" version="0" value="/model.2/m.2/cv2/conv/Conv" />
			</rt_info>
			<input>
				<port id="0" precision="FP32">
					<dim>1</dim>
					<dim>64</dim>
					<dim>160</dim>
					<dim>160</dim>
				</port>
				<port id="1" precision="FP32">
					<dim>1</dim>
					<dim>64</dim>
					<dim>1</dim>
					<dim>1</dim>
				</port>
			</input>
			<output>
				<port id="2" precision="FP32" names="/model.2/m.2/cv2/conv/Conv_output_0">
					<dim>1</dim>
					<dim>64</dim>
					<dim>160</dim>
					<dim>160</dim>
				</port>
			</output>
		</layer>
		<layer id="138" name="/model.2/m.2/cv2/act/Mul" type="Swish" version="opset4">
			<rt_info>
				<attribute name="fused_names" version="0" value="/model.2/m.2/cv2/act/Mul" />
			</rt_info>
			<input>
				<port id="0" precision="FP32">
					<dim>1</dim>
					<dim>64</dim>
					<dim>160</dim>
					<dim>160</dim>
				</port>
			</input>
			<output>
				<port id="1" precision="FP32" names="/model.2/m.2/cv2/act/Mul_output_0">
					<dim>1</dim>
					<dim>64</dim>
					<dim>160</dim>
					<dim>160</dim>
				</port>
			</output>
		</layer>
		<layer id="139" name="Constant_103498" type="Const" version="opset1">
			<data element_type="f32" shape="" offset="318776" size="4" />
			<rt_info>
				<attribute name="fused_names" version="0" value="Constant_103498" />
			</rt_info>
			<output>
				<port id="0" precision="FP32" />
			</output>
		</layer>
		<layer id="140" name="Constant_103499" type="Const" version="opset1">
			<data element_type="f32" shape="" offset="318780" size="4" />
			<rt_info>
				<attribute name="fused_names" version="0" value="Constant_103499" />
			</rt_info>
			<output>
				<port id="0" precision="FP32" />
			</output>
		</layer>
		<layer id="141" name="Constant_103500" type="Const" version="opset1">
			<data element_type="f32" shape="" offset="318776" size="4" />
			<rt_info>
				<attribute name="fused_names" version="0" value="Constant_103500" />
			</rt_info>
			<output>
				<port id="0" precision="FP32" />
			</output>
		</layer>
		<layer id="142" name="Constant_103501" type="Const" version="opset1">
			<data element_type="f32" shape="" offset="318780" size="4" />
			<rt_info>
				<attribute name="fused_names" version="0" value="Constant_103501" />
			</rt_info>
			<output>
				<port id="0" precision="FP32" />
			</output>
		</layer>
		<layer id="143" name="/model.2/m.2/cv2/act/Mul/fq_output_0" type="FakeQuantize" version="opset1">
			<data levels="256" auto_broadcast="numpy" />
			<rt_info>
				<attribute name="fused_names" version="0" value="/model.2/m.2/cv2/act/Mul/fq_output_0" />
			</rt_info>
			<input>
				<port id="0" precision="FP32">
					<dim>1</dim>
					<dim>64</dim>
					<dim>160</dim>
					<dim>160</dim>
				</port>
				<port id="1" precision="FP32" />
				<port id="2" precision="FP32" />
				<port id="3" precision="FP32" />
				<port id="4" precision="FP32" />
			</input>
			<output>
				<port id="5" precision="FP32">
					<dim>1</dim>
					<dim>64</dim>
					<dim>160</dim>
					<dim>160</dim>
				</port>
			</output>
		</layer>
		<layer id="144" name="/model.2/m.2/Add" type="Add" version="opset1">
			<data auto_broadcast="numpy" />
			<rt_info>
				<attribute name="fused_names" version="0" value="/model.2/m.2/Add" />
			</rt_info>
			<input>
				<port id="0" precision="FP32">
					<dim>1</dim>
					<dim>64</dim>
					<dim>160</dim>
					<dim>160</dim>
				</port>
				<port id="1" precision="FP32">
					<dim>1</dim>
					<dim>64</dim>
					<dim>160</dim>
					<dim>160</dim>
				</port>
			</input>
			<output>
				<port id="2" precision="FP32" names="/model.2/m.2/Add_output_0">
					<dim>1</dim>
					<dim>64</dim>
					<dim>160</dim>
					<dim>160</dim>
				</port>
			</output>
		</layer>
		<layer id="145" name="Constant_103188" type="Const" version="opset1">
			<data element_type="f32" shape="" offset="94460" size="4" />
			<rt_info>
				<attribute name="fused_names" version="0" value="Constant_103188" />
			</rt_info>
			<output>
				<port id="0" precision="FP32" />
			</output>
		</layer>
		<layer id="146" name="Constant_103189" type="Const" version="opset1">
			<data element_type="f32" shape="" offset="94464" size="4" />
			<rt_info>
				<attribute name="fused_names" version="0" value="Constant_103189" />
			</rt_info>
			<output>
				<port id="0" precision="FP32" />
			</output>
		</layer>
		<layer id="147" name="Constant_103190" type="Const" version="opset1">
			<data element_type="f32" shape="" offset="94460" size="4" />
			<rt_info>
				<attribute name="fused_names" version="0" value="Constant_103190" />
			</rt_info>
			<output>
				<port id="0" precision="FP32" />
			</output>
		</layer>
		<layer id="148" name="Constant_103191" type="Const" version="opset1">
			<data element_type="f32" shape="" offset="94464" size="4" />
			<rt_info>
				<attribute name="fused_names" version="0" value="Constant_103191" />
			</rt_info>
			<output>
				<port id="0" precision="FP32" />
			</output>
		</layer>
		<layer id="149" name="/model.2/m.2/Add/fq_output_0" type="FakeQuantize" version="opset1">
			<data levels="256" auto_broadcast="numpy" />
			<rt_info>
				<attribute name="fused_names" version="0" value="/model.2/m.2/Add/fq_output_0" />
			</rt_info>
			<input>
				<port id="0" precision="FP32">
					<dim>1</dim>
					<dim>64</dim>
					<dim>160</dim>
					<dim>160</dim>
				</port>
				<port id="1" precision="FP32" />
				<port id="2" precision="FP32" />
				<port id="3" precision="FP32" />
				<port id="4" precision="FP32" />
			</input>
			<output>
				<port id="5" precision="FP32">
					<dim>1</dim>
					<dim>64</dim>
					<dim>160</dim>
					<dim>160</dim>
				</port>
			</output>
		</layer>
		<layer id="150" name="/model.2/Concat" type="Concat" version="opset1">
			<data axis="1" />
			<rt_info>
				<attribute name="fused_names" version="0" value="/model.2/Concat" />
			</rt_info>
			<input>
				<port id="0" precision="FP32">
					<dim>1</dim>
					<dim>64</dim>
					<dim>160</dim>
					<dim>160</dim>
				</port>
				<port id="1" precision="FP32">
					<dim>1</dim>
					<dim>64</dim>
					<dim>160</dim>
					<dim>160</dim>
				</port>
				<port id="2" precision="FP32">
					<dim>1</dim>
					<dim>64</dim>
					<dim>160</dim>
					<dim>160</dim>
				</port>
				<port id="3" precision="FP32">
					<dim>1</dim>
					<dim>64</dim>
					<dim>160</dim>
					<dim>160</dim>
				</port>
				<port id="4" precision="FP32">
					<dim>1</dim>
					<dim>64</dim>
					<dim>160</dim>
					<dim>160</dim>
				</port>
			</input>
			<output>
				<port id="5" precision="FP32" names="/model.2/Concat_output_0">
					<dim>1</dim>
					<dim>320</dim>
					<dim>160</dim>
					<dim>160</dim>
				</port>
			</output>
		</layer>
		<layer id="151" name="model.2.cv2.conv.weight" type="Const" version="opset1">
			<data element_type="i8" shape="128, 320, 1, 1" offset="318784" size="40960" />
			<rt_info>
				<attribute name="fused_names" version="0" value="model.2.cv2.conv.weight" />
			</rt_info>
			<output>
				<port id="0" precision="I8">
					<dim>128</dim>
					<dim>320</dim>
					<dim>1</dim>
					<dim>1</dim>
				</port>
			</output>
		</layer>
		<layer id="152" name="Convert_561101" type="Convert" version="opset1">
			<data destination_type="f32" />
			<rt_info>
				<attribute name="fused_names" version="0" value="model.2.cv2.conv.weight" />
			</rt_info>
			<input>
				<port id="0" precision="I8">
					<dim>128</dim>
					<dim>320</dim>
					<dim>1</dim>
					<dim>1</dim>
				</port>
			</input>
			<output>
				<port id="1" precision="FP32">
					<dim>128</dim>
					<dim>320</dim>
					<dim>1</dim>
					<dim>1</dim>
				</port>
			</output>
		</layer>
		<layer id="153" name="Constant_560999" type="Const" version="opset1">
			<data element_type="f32" shape="128, 1, 1, 1" offset="359744" size="512" />
			<rt_info>
				<attribute name="fused_names" version="0" value="model.2.cv2.conv.weight" />
			</rt_info>
			<output>
				<port id="0" precision="FP32">
					<dim>128</dim>
					<dim>1</dim>
					<dim>1</dim>
					<dim>1</dim>
				</port>
			</output>
		</layer>
		<layer id="154" name="/model.2/cv2/conv/Conv/WithoutBiases/fq_weights_1" type="Multiply" version="opset1">
			<data auto_broadcast="numpy" />
			<rt_info>
				<attribute name="fused_names" version="0" value="model.2.cv2.conv.weight" />
			</rt_info>
			<input>
				<port id="0" precision="FP32">
					<dim>128</dim>
					<dim>320</dim>
					<dim>1</dim>
					<dim>1</dim>
				</port>
				<port id="1" precision="FP32">
					<dim>128</dim>
					<dim>1</dim>
					<dim>1</dim>
					<dim>1</dim>
				</port>
			</input>
			<output>
				<port id="2" precision="FP32">
					<dim>128</dim>
					<dim>320</dim>
					<dim>1</dim>
					<dim>1</dim>
				</port>
			</output>
		</layer>
		<layer id="155" name="/model.2/cv2/conv/Conv/WithoutBiases" type="Convolution" version="opset1">
			<data strides="1, 1" dilations="1, 1" pads_begin="0, 0" pads_end="0, 0" auto_pad="explicit" />
			<rt_info>
				<attribute name="fused_names" version="0" value="/model.2/cv2/conv/Conv/WithoutBiases" />
			</rt_info>
			<input>
				<port id="0" precision="FP32">
					<dim>1</dim>
					<dim>320</dim>
					<dim>160</dim>
					<dim>160</dim>
				</port>
				<port id="1" precision="FP32">
					<dim>128</dim>
					<dim>320</dim>
					<dim>1</dim>
					<dim>1</dim>
				</port>
			</input>
			<output>
				<port id="2" precision="FP32">
					<dim>1</dim>
					<dim>128</dim>
					<dim>160</dim>
					<dim>160</dim>
				</port>
			</output>
		</layer>
		<layer id="156" name="Reshape_380" type="Const" version="opset1">
			<data element_type="f32" shape="1, 128, 1, 1" offset="360256" size="512" />
			<rt_info>
				<attribute name="fused_names" version="0" value="Reshape_380" />
			</rt_info>
			<output>
				<port id="0" precision="FP32">
					<dim>1</dim>
					<dim>128</dim>
					<dim>1</dim>
					<dim>1</dim>
				</port>
			</output>
		</layer>
		<layer id="157" name="/model.2/cv2/conv/Conv" type="Add" version="opset1">
			<data auto_broadcast="numpy" />
			<rt_info>
				<attribute name="fused_names" version="0" value="/model.2/cv2/conv/Conv" />
			</rt_info>
			<input>
				<port id="0" precision="FP32">
					<dim>1</dim>
					<dim>128</dim>
					<dim>160</dim>
					<dim>160</dim>
				</port>
				<port id="1" precision="FP32">
					<dim>1</dim>
					<dim>128</dim>
					<dim>1</dim>
					<dim>1</dim>
				</port>
			</input>
			<output>
				<port id="2" precision="FP32" names="/model.2/cv2/conv/Conv_output_0">
					<dim>1</dim>
					<dim>128</dim>
					<dim>160</dim>
					<dim>160</dim>
				</port>
			</output>
		</layer>
		<layer id="158" name="/model.2/cv2/act/Mul" type="Swish" version="opset4">
			<rt_info>
				<attribute name="fused_names" version="0" value="/model.2/cv2/act/Mul" />
			</rt_info>
			<input>
				<port id="0" precision="FP32">
					<dim>1</dim>
					<dim>128</dim>
					<dim>160</dim>
					<dim>160</dim>
				</port>
			</input>
			<output>
				<port id="1" precision="FP32" names="/model.2/cv2/act/Mul_output_0">
					<dim>1</dim>
					<dim>128</dim>
					<dim>160</dim>
					<dim>160</dim>
				</port>
			</output>
		</layer>
		<layer id="159" name="Constant_103508" type="Const" version="opset1">
			<data element_type="f32" shape="" offset="360768" size="4" />
			<rt_info>
				<attribute name="fused_names" version="0" value="Constant_103508" />
			</rt_info>
			<output>
				<port id="0" precision="FP32" />
			</output>
		</layer>
		<layer id="160" name="Constant_103509" type="Const" version="opset1">
			<data element_type="f32" shape="" offset="360772" size="4" />
			<rt_info>
				<attribute name="fused_names" version="0" value="Constant_103509" />
			</rt_info>
			<output>
				<port id="0" precision="FP32" />
			</output>
		</layer>
		<layer id="161" name="Constant_103510" type="Const" version="opset1">
			<data element_type="f32" shape="" offset="360768" size="4" />
			<rt_info>
				<attribute name="fused_names" version="0" value="Constant_103510" />
			</rt_info>
			<output>
				<port id="0" precision="FP32" />
			</output>
		</layer>
		<layer id="162" name="Constant_103511" type="Const" version="opset1">
			<data element_type="f32" shape="" offset="360772" size="4" />
			<rt_info>
				<attribute name="fused_names" version="0" value="Constant_103511" />
			</rt_info>
			<output>
				<port id="0" precision="FP32" />
			</output>
		</layer>
		<layer id="163" name="/model.2/cv2/act/Mul/fq_output_0" type="FakeQuantize" version="opset1">
			<data levels="256" auto_broadcast="numpy" />
			<rt_info>
				<attribute name="fused_names" version="0" value="/model.2/cv2/act/Mul/fq_output_0" />
			</rt_info>
			<input>
				<port id="0" precision="FP32">
					<dim>1</dim>
					<dim>128</dim>
					<dim>160</dim>
					<dim>160</dim>
				</port>
				<port id="1" precision="FP32" />
				<port id="2" precision="FP32" />
				<port id="3" precision="FP32" />
				<port id="4" precision="FP32" />
			</input>
			<output>
				<port id="5" precision="FP32">
					<dim>1</dim>
					<dim>128</dim>
					<dim>160</dim>
					<dim>160</dim>
				</port>
			</output>
		</layer>
		<layer id="164" name="model.3.conv.weight" type="Const" version="opset1">
			<data element_type="i8" shape="256, 128, 3, 3" offset="360776" size="294912" />
			<rt_info>
				<attribute name="fused_names" version="0" value="model.3.conv.weight" />
			</rt_info>
			<output>
				<port id="0" precision="I8">
					<dim>256</dim>
					<dim>128</dim>
					<dim>3</dim>
					<dim>3</dim>
				</port>
			</output>
		</layer>
		<layer id="165" name="Convert_561255" type="Convert" version="opset1">
			<data destination_type="f32" />
			<rt_info>
				<attribute name="fused_names" version="0" value="model.3.conv.weight" />
			</rt_info>
			<input>
				<port id="0" precision="I8">
					<dim>256</dim>
					<dim>128</dim>
					<dim>3</dim>
					<dim>3</dim>
				</port>
			</input>
			<output>
				<port id="1" precision="FP32">
					<dim>256</dim>
					<dim>128</dim>
					<dim>3</dim>
					<dim>3</dim>
				</port>
			</output>
		</layer>
		<layer id="166" name="Constant_561153" type="Const" version="opset1">
			<data element_type="f32" shape="256, 1, 1, 1" offset="655688" size="1024" />
			<rt_info>
				<attribute name="fused_names" version="0" value="model.3.conv.weight" />
			</rt_info>
			<output>
				<port id="0" precision="FP32">
					<dim>256</dim>
					<dim>1</dim>
					<dim>1</dim>
					<dim>1</dim>
				</port>
			</output>
		</layer>
		<layer id="167" name="/model.3/conv/Conv/WithoutBiases/fq_weights_1" type="Multiply" version="opset1">
			<data auto_broadcast="numpy" />
			<rt_info>
				<attribute name="fused_names" version="0" value="model.3.conv.weight" />
			</rt_info>
			<input>
				<port id="0" precision="FP32">
					<dim>256</dim>
					<dim>128</dim>
					<dim>3</dim>
					<dim>3</dim>
				</port>
				<port id="1" precision="FP32">
					<dim>256</dim>
					<dim>1</dim>
					<dim>1</dim>
					<dim>1</dim>
				</port>
			</input>
			<output>
				<port id="2" precision="FP32">
					<dim>256</dim>
					<dim>128</dim>
					<dim>3</dim>
					<dim>3</dim>
				</port>
			</output>
		</layer>
		<layer id="168" name="/model.3/conv/Conv/WithoutBiases" type="Convolution" version="opset1">
			<data strides="2, 2" dilations="1, 1" pads_begin="1, 1" pads_end="1, 1" auto_pad="explicit" />
			<rt_info>
				<attribute name="fused_names" version="0" value="/model.3/conv/Conv/WithoutBiases" />
			</rt_info>
			<input>
				<port id="0" precision="FP32">
					<dim>1</dim>
					<dim>128</dim>
					<dim>160</dim>
					<dim>160</dim>
				</port>
				<port id="1" precision="FP32">
					<dim>256</dim>
					<dim>128</dim>
					<dim>3</dim>
					<dim>3</dim>
				</port>
			</input>
			<output>
				<port id="2" precision="FP32">
					<dim>1</dim>
					<dim>256</dim>
					<dim>80</dim>
					<dim>80</dim>
				</port>
			</output>
		</layer>
		<layer id="169" name="Reshape_397" type="Const" version="opset1">
			<data element_type="f32" shape="1, 256, 1, 1" offset="656712" size="1024" />
			<rt_info>
				<attribute name="fused_names" version="0" value="Reshape_397" />
			</rt_info>
			<output>
				<port id="0" precision="FP32">
					<dim>1</dim>
					<dim>256</dim>
					<dim>1</dim>
					<dim>1</dim>
				</port>
			</output>
		</layer>
		<layer id="170" name="/model.3/conv/Conv" type="Add" version="opset1">
			<data auto_broadcast="numpy" />
			<rt_info>
				<attribute name="fused_names" version="0" value="/model.3/conv/Conv" />
			</rt_info>
			<input>
				<port id="0" precision="FP32">
					<dim>1</dim>
					<dim>256</dim>
					<dim>80</dim>
					<dim>80</dim>
				</port>
				<port id="1" precision="FP32">
					<dim>1</dim>
					<dim>256</dim>
					<dim>1</dim>
					<dim>1</dim>
				</port>
			</input>
			<output>
				<port id="2" precision="FP32" names="/model.3/conv/Conv_output_0">
					<dim>1</dim>
					<dim>256</dim>
					<dim>80</dim>
					<dim>80</dim>
				</port>
			</output>
		</layer>
		<layer id="171" name="/model.3/act/Mul" type="Swish" version="opset4">
			<rt_info>
				<attribute name="fused_names" version="0" value="/model.3/act/Mul" />
			</rt_info>
			<input>
				<port id="0" precision="FP32">
					<dim>1</dim>
					<dim>256</dim>
					<dim>80</dim>
					<dim>80</dim>
				</port>
			</input>
			<output>
				<port id="1" precision="FP32" names="/model.3/act/Mul_output_0">
					<dim>1</dim>
					<dim>256</dim>
					<dim>80</dim>
					<dim>80</dim>
				</port>
			</output>
		</layer>
		<layer id="172" name="Constant_103518" type="Const" version="opset1">
			<data element_type="f32" shape="" offset="2292" size="4" />
			<rt_info>
				<attribute name="fused_names" version="0" value="Constant_103518" />
			</rt_info>
			<output>
				<port id="0" precision="FP32" />
			</output>
		</layer>
		<layer id="173" name="Constant_103519" type="Const" version="opset1">
			<data element_type="f32" shape="" offset="657736" size="4" />
			<rt_info>
				<attribute name="fused_names" version="0" value="Constant_103519" />
			</rt_info>
			<output>
				<port id="0" precision="FP32" />
			</output>
		</layer>
		<layer id="174" name="Constant_103520" type="Const" version="opset1">
			<data element_type="f32" shape="" offset="2292" size="4" />
			<rt_info>
				<attribute name="fused_names" version="0" value="Constant_103520" />
			</rt_info>
			<output>
				<port id="0" precision="FP32" />
			</output>
		</layer>
		<layer id="175" name="Constant_103521" type="Const" version="opset1">
			<data element_type="f32" shape="" offset="657736" size="4" />
			<rt_info>
				<attribute name="fused_names" version="0" value="Constant_103521" />
			</rt_info>
			<output>
				<port id="0" precision="FP32" />
			</output>
		</layer>
		<layer id="176" name="/model.3/act/Mul/fq_output_0" type="FakeQuantize" version="opset1">
			<data levels="256" auto_broadcast="numpy" />
			<rt_info>
				<attribute name="fused_names" version="0" value="/model.3/act/Mul/fq_output_0" />
			</rt_info>
			<input>
				<port id="0" precision="FP32">
					<dim>1</dim>
					<dim>256</dim>
					<dim>80</dim>
					<dim>80</dim>
				</port>
				<port id="1" precision="FP32" />
				<port id="2" precision="FP32" />
				<port id="3" precision="FP32" />
				<port id="4" precision="FP32" />
			</input>
			<output>
				<port id="5" precision="FP32">
					<dim>1</dim>
					<dim>256</dim>
					<dim>80</dim>
					<dim>80</dim>
				</port>
			</output>
		</layer>
		<layer id="177" name="model.4.cv1.conv.weight" type="Const" version="opset1">
			<data element_type="i8" shape="256, 256, 1, 1" offset="657740" size="65536" />
			<rt_info>
				<attribute name="fused_names" version="0" value="model.4.cv1.conv.weight" />
			</rt_info>
			<output>
				<port id="0" precision="I8">
					<dim>256</dim>
					<dim>256</dim>
					<dim>1</dim>
					<dim>1</dim>
				</port>
			</output>
		</layer>
		<layer id="178" name="Convert_561409" type="Convert" version="opset1">
			<data destination_type="f32" />
			<rt_info>
				<attribute name="fused_names" version="0" value="model.4.cv1.conv.weight" />
			</rt_info>
			<input>
				<port id="0" precision="I8">
					<dim>256</dim>
					<dim>256</dim>
					<dim>1</dim>
					<dim>1</dim>
				</port>
			</input>
			<output>
				<port id="1" precision="FP32">
					<dim>256</dim>
					<dim>256</dim>
					<dim>1</dim>
					<dim>1</dim>
				</port>
			</output>
		</layer>
		<layer id="179" name="Constant_561307" type="Const" version="opset1">
			<data element_type="f32" shape="256, 1, 1, 1" offset="723276" size="1024" />
			<rt_info>
				<attribute name="fused_names" version="0" value="model.4.cv1.conv.weight" />
			</rt_info>
			<output>
				<port id="0" precision="FP32">
					<dim>256</dim>
					<dim>1</dim>
					<dim>1</dim>
					<dim>1</dim>
				</port>
			</output>
		</layer>
		<layer id="180" name="/model.4/cv1/conv/Conv/WithoutBiases/fq_weights_1" type="Multiply" version="opset1">
			<data auto_broadcast="numpy" />
			<rt_info>
				<attribute name="fused_names" version="0" value="model.4.cv1.conv.weight" />
			</rt_info>
			<input>
				<port id="0" precision="FP32">
					<dim>256</dim>
					<dim>256</dim>
					<dim>1</dim>
					<dim>1</dim>
				</port>
				<port id="1" precision="FP32">
					<dim>256</dim>
					<dim>1</dim>
					<dim>1</dim>
					<dim>1</dim>
				</port>
			</input>
			<output>
				<port id="2" precision="FP32">
					<dim>256</dim>
					<dim>256</dim>
					<dim>1</dim>
					<dim>1</dim>
				</port>
			</output>
		</layer>
		<layer id="181" name="/model.4/cv1/conv/Conv/WithoutBiases" type="Convolution" version="opset1">
			<data strides="1, 1" dilations="1, 1" pads_begin="0, 0" pads_end="0, 0" auto_pad="explicit" />
			<rt_info>
				<attribute name="fused_names" version="0" value="/model.4/cv1/conv/Conv/WithoutBiases" />
			</rt_info>
			<input>
				<port id="0" precision="FP32">
					<dim>1</dim>
					<dim>256</dim>
					<dim>80</dim>
					<dim>80</dim>
				</port>
				<port id="1" precision="FP32">
					<dim>256</dim>
					<dim>256</dim>
					<dim>1</dim>
					<dim>1</dim>
				</port>
			</input>
			<output>
				<port id="2" precision="FP32">
					<dim>1</dim>
					<dim>256</dim>
					<dim>80</dim>
					<dim>80</dim>
				</port>
			</output>
		</layer>
		<layer id="182" name="Reshape_414" type="Const" version="opset1">
			<data element_type="f32" shape="1, 256, 1, 1" offset="724300" size="1024" />
			<rt_info>
				<attribute name="fused_names" version="0" value="Reshape_414" />
			</rt_info>
			<output>
				<port id="0" precision="FP32">
					<dim>1</dim>
					<dim>256</dim>
					<dim>1</dim>
					<dim>1</dim>
				</port>
			</output>
		</layer>
		<layer id="183" name="/model.4/cv1/conv/Conv" type="Add" version="opset1">
			<data auto_broadcast="numpy" />
			<rt_info>
				<attribute name="fused_names" version="0" value="/model.4/cv1/conv/Conv" />
			</rt_info>
			<input>
				<port id="0" precision="FP32">
					<dim>1</dim>
					<dim>256</dim>
					<dim>80</dim>
					<dim>80</dim>
				</port>
				<port id="1" precision="FP32">
					<dim>1</dim>
					<dim>256</dim>
					<dim>1</dim>
					<dim>1</dim>
				</port>
			</input>
			<output>
				<port id="2" precision="FP32" names="/model.4/cv1/conv/Conv_output_0">
					<dim>1</dim>
					<dim>256</dim>
					<dim>80</dim>
					<dim>80</dim>
				</port>
			</output>
		</layer>
		<layer id="184" name="/model.4/cv1/act/Mul" type="Swish" version="opset4">
			<rt_info>
				<attribute name="fused_names" version="0" value="/model.4/cv1/act/Mul" />
			</rt_info>
			<input>
				<port id="0" precision="FP32">
					<dim>1</dim>
					<dim>256</dim>
					<dim>80</dim>
					<dim>80</dim>
				</port>
			</input>
			<output>
				<port id="1" precision="FP32" names="/model.4/cv1/act/Mul_output_0">
					<dim>1</dim>
					<dim>256</dim>
					<dim>80</dim>
					<dim>80</dim>
				</port>
			</output>
		</layer>
		<layer id="185" name="Constant_103213" type="Const" version="opset1">
			<data element_type="f32" shape="" offset="725324" size="4" />
			<rt_info>
				<attribute name="fused_names" version="0" value="Constant_103213" />
			</rt_info>
			<output>
				<port id="0" precision="FP32" />
			</output>
		</layer>
		<layer id="186" name="Constant_103214" type="Const" version="opset1">
			<data element_type="f32" shape="" offset="725328" size="4" />
			<rt_info>
				<attribute name="fused_names" version="0" value="Constant_103214" />
			</rt_info>
			<output>
				<port id="0" precision="FP32" />
			</output>
		</layer>
		<layer id="187" name="Constant_103215" type="Const" version="opset1">
			<data element_type="f32" shape="" offset="725324" size="4" />
			<rt_info>
				<attribute name="fused_names" version="0" value="Constant_103215" />
			</rt_info>
			<output>
				<port id="0" precision="FP32" />
			</output>
		</layer>
		<layer id="188" name="Constant_103216" type="Const" version="opset1">
			<data element_type="f32" shape="" offset="725328" size="4" />
			<rt_info>
				<attribute name="fused_names" version="0" value="Constant_103216" />
			</rt_info>
			<output>
				<port id="0" precision="FP32" />
			</output>
		</layer>
		<layer id="189" name="/model.4/cv1/act/Mul/fq_output_0" type="FakeQuantize" version="opset1">
			<data levels="256" auto_broadcast="numpy" />
			<rt_info>
				<attribute name="fused_names" version="0" value="/model.4/cv1/act/Mul/fq_output_0" />
			</rt_info>
			<input>
				<port id="0" precision="FP32">
					<dim>1</dim>
					<dim>256</dim>
					<dim>80</dim>
					<dim>80</dim>
				</port>
				<port id="1" precision="FP32" />
				<port id="2" precision="FP32" />
				<port id="3" precision="FP32" />
				<port id="4" precision="FP32" />
			</input>
			<output>
				<port id="5" precision="FP32">
					<dim>1</dim>
					<dim>256</dim>
					<dim>80</dim>
					<dim>80</dim>
				</port>
			</output>
		</layer>
		<layer id="190" name="Constant_421" type="Const" version="opset1">
			<data element_type="i64" shape="" offset="94468" size="8" />
			<rt_info>
				<attribute name="fused_names" version="0" value="Constant_421" />
			</rt_info>
			<output>
				<port id="0" precision="I64" />
			</output>
		</layer>
		<layer id="191" name="Constant_42" type="Const" version="opset1">
			<data element_type="i64" shape="2" offset="725332" size="16" />
			<rt_info>
				<attribute name="fused_names" version="0" value="Constant_42" />
			</rt_info>
			<output>
				<port id="0" precision="I64" names="onnx::Split_255">
					<dim>2</dim>
				</port>
			</output>
		</layer>
		<layer id="192" name="/model.4/Split" type="VariadicSplit" version="opset1">
			<rt_info>
				<attribute name="fused_names" version="0" value="/model.4/Split" />
			</rt_info>
			<input>
				<port id="0" precision="FP32">
					<dim>1</dim>
					<dim>256</dim>
					<dim>80</dim>
					<dim>80</dim>
				</port>
				<port id="1" precision="I64" />
				<port id="2" precision="I64">
					<dim>2</dim>
				</port>
			</input>
			<output>
				<port id="3" precision="FP32" names="/model.4/Split_output_0">
					<dim>1</dim>
					<dim>128</dim>
					<dim>80</dim>
					<dim>80</dim>
				</port>
				<port id="4" precision="FP32" names="/model.4/Split_output_1">
					<dim>1</dim>
					<dim>128</dim>
					<dim>80</dim>
					<dim>80</dim>
				</port>
			</output>
		</layer>
		<layer id="193" name="model.4.m.0.cv1.conv.weight" type="Const" version="opset1">
			<data element_type="i8" shape="128, 128, 3, 3" offset="725348" size="147456" />
			<rt_info>
				<attribute name="fused_names" version="0" value="model.4.m.0.cv1.conv.weight" />
			</rt_info>
			<output>
				<port id="0" precision="I8">
					<dim>128</dim>
					<dim>128</dim>
					<dim>3</dim>
					<dim>3</dim>
				</port>
			</output>
		</layer>
		<layer id="194" name="Convert_561563" type="Convert" version="opset1">
			<data destination_type="f32" />
			<rt_info>
				<attribute name="fused_names" version="0" value="model.4.m.0.cv1.conv.weight" />
			</rt_info>
			<input>
				<port id="0" precision="I8">
					<dim>128</dim>
					<dim>128</dim>
					<dim>3</dim>
					<dim>3</dim>
				</port>
			</input>
			<output>
				<port id="1" precision="FP32">
					<dim>128</dim>
					<dim>128</dim>
					<dim>3</dim>
					<dim>3</dim>
				</port>
			</output>
		</layer>
		<layer id="195" name="Constant_561461" type="Const" version="opset1">
			<data element_type="f32" shape="128, 1, 1, 1" offset="872804" size="512" />
			<rt_info>
				<attribute name="fused_names" version="0" value="model.4.m.0.cv1.conv.weight" />
			</rt_info>
			<output>
				<port id="0" precision="FP32">
					<dim>128</dim>
					<dim>1</dim>
					<dim>1</dim>
					<dim>1</dim>
				</port>
			</output>
		</layer>
		<layer id="196" name="/model.4/m.0/cv1/conv/Conv/WithoutBiases/fq_weights_1" type="Multiply" version="opset1">
			<data auto_broadcast="numpy" />
			<rt_info>
				<attribute name="fused_names" version="0" value="model.4.m.0.cv1.conv.weight" />
			</rt_info>
			<input>
				<port id="0" precision="FP32">
					<dim>128</dim>
					<dim>128</dim>
					<dim>3</dim>
					<dim>3</dim>
				</port>
				<port id="1" precision="FP32">
					<dim>128</dim>
					<dim>1</dim>
					<dim>1</dim>
					<dim>1</dim>
				</port>
			</input>
			<output>
				<port id="2" precision="FP32">
					<dim>128</dim>
					<dim>128</dim>
					<dim>3</dim>
					<dim>3</dim>
				</port>
			</output>
		</layer>
		<layer id="197" name="/model.4/m.0/cv1/conv/Conv/WithoutBiases" type="Convolution" version="opset1">
			<data strides="1, 1" dilations="1, 1" pads_begin="1, 1" pads_end="1, 1" auto_pad="explicit" />
			<rt_info>
				<attribute name="fused_names" version="0" value="/model.4/m.0/cv1/conv/Conv/WithoutBiases" />
			</rt_info>
			<input>
				<port id="0" precision="FP32">
					<dim>1</dim>
					<dim>128</dim>
					<dim>80</dim>
					<dim>80</dim>
				</port>
				<port id="1" precision="FP32">
					<dim>128</dim>
					<dim>128</dim>
					<dim>3</dim>
					<dim>3</dim>
				</port>
			</input>
			<output>
				<port id="2" precision="FP32">
					<dim>1</dim>
					<dim>128</dim>
					<dim>80</dim>
					<dim>80</dim>
				</port>
			</output>
		</layer>
		<layer id="198" name="Reshape_434" type="Const" version="opset1">
			<data element_type="f32" shape="1, 128, 1, 1" offset="873316" size="512" />
			<rt_info>
				<attribute name="fused_names" version="0" value="Reshape_434" />
			</rt_info>
			<output>
				<port id="0" precision="FP32">
					<dim>1</dim>
					<dim>128</dim>
					<dim>1</dim>
					<dim>1</dim>
				</port>
			</output>
		</layer>
		<layer id="199" name="/model.4/m.0/cv1/conv/Conv" type="Add" version="opset1">
			<data auto_broadcast="numpy" />
			<rt_info>
				<attribute name="fused_names" version="0" value="/model.4/m.0/cv1/conv/Conv" />
			</rt_info>
			<input>
				<port id="0" precision="FP32">
					<dim>1</dim>
					<dim>128</dim>
					<dim>80</dim>
					<dim>80</dim>
				</port>
				<port id="1" precision="FP32">
					<dim>1</dim>
					<dim>128</dim>
					<dim>1</dim>
					<dim>1</dim>
				</port>
			</input>
			<output>
				<port id="2" precision="FP32" names="/model.4/m.0/cv1/conv/Conv_output_0">
					<dim>1</dim>
					<dim>128</dim>
					<dim>80</dim>
					<dim>80</dim>
				</port>
			</output>
		</layer>
		<layer id="200" name="/model.4/m.0/cv1/act/Mul" type="Swish" version="opset4">
			<rt_info>
				<attribute name="fused_names" version="0" value="/model.4/m.0/cv1/act/Mul" />
			</rt_info>
			<input>
				<port id="0" precision="FP32">
					<dim>1</dim>
					<dim>128</dim>
					<dim>80</dim>
					<dim>80</dim>
				</port>
			</input>
			<output>
				<port id="1" precision="FP32" names="/model.4/m.0/cv1/act/Mul_output_0">
					<dim>1</dim>
					<dim>128</dim>
					<dim>80</dim>
					<dim>80</dim>
				</port>
			</output>
		</layer>
		<layer id="201" name="Constant_103533" type="Const" version="opset1">
			<data element_type="f32" shape="" offset="2292" size="4" />
			<rt_info>
				<attribute name="fused_names" version="0" value="Constant_103533" />
			</rt_info>
			<output>
				<port id="0" precision="FP32" />
			</output>
		</layer>
		<layer id="202" name="Constant_103534" type="Const" version="opset1">
			<data element_type="f32" shape="" offset="873828" size="4" />
			<rt_info>
				<attribute name="fused_names" version="0" value="Constant_103534" />
			</rt_info>
			<output>
				<port id="0" precision="FP32" />
			</output>
		</layer>
		<layer id="203" name="Constant_103535" type="Const" version="opset1">
			<data element_type="f32" shape="" offset="2292" size="4" />
			<rt_info>
				<attribute name="fused_names" version="0" value="Constant_103535" />
			</rt_info>
			<output>
				<port id="0" precision="FP32" />
			</output>
		</layer>
		<layer id="204" name="Constant_103536" type="Const" version="opset1">
			<data element_type="f32" shape="" offset="873828" size="4" />
			<rt_info>
				<attribute name="fused_names" version="0" value="Constant_103536" />
			</rt_info>
			<output>
				<port id="0" precision="FP32" />
			</output>
		</layer>
		<layer id="205" name="/model.4/m.0/cv1/act/Mul/fq_output_0" type="FakeQuantize" version="opset1">
			<data levels="256" auto_broadcast="numpy" />
			<rt_info>
				<attribute name="fused_names" version="0" value="/model.4/m.0/cv1/act/Mul/fq_output_0" />
			</rt_info>
			<input>
				<port id="0" precision="FP32">
					<dim>1</dim>
					<dim>128</dim>
					<dim>80</dim>
					<dim>80</dim>
				</port>
				<port id="1" precision="FP32" />
				<port id="2" precision="FP32" />
				<port id="3" precision="FP32" />
				<port id="4" precision="FP32" />
			</input>
			<output>
				<port id="5" precision="FP32">
					<dim>1</dim>
					<dim>128</dim>
					<dim>80</dim>
					<dim>80</dim>
				</port>
			</output>
		</layer>
		<layer id="206" name="model.4.m.0.cv2.conv.weight" type="Const" version="opset1">
			<data element_type="i8" shape="128, 128, 3, 3" offset="873832" size="147456" />
			<rt_info>
				<attribute name="fused_names" version="0" value="model.4.m.0.cv2.conv.weight" />
			</rt_info>
			<output>
				<port id="0" precision="I8">
					<dim>128</dim>
					<dim>128</dim>
					<dim>3</dim>
					<dim>3</dim>
				</port>
			</output>
		</layer>
		<layer id="207" name="Convert_561717" type="Convert" version="opset1">
			<data destination_type="f32" />
			<rt_info>
				<attribute name="fused_names" version="0" value="model.4.m.0.cv2.conv.weight" />
			</rt_info>
			<input>
				<port id="0" precision="I8">
					<dim>128</dim>
					<dim>128</dim>
					<dim>3</dim>
					<dim>3</dim>
				</port>
			</input>
			<output>
				<port id="1" precision="FP32">
					<dim>128</dim>
					<dim>128</dim>
					<dim>3</dim>
					<dim>3</dim>
				</port>
			</output>
		</layer>
		<layer id="208" name="Constant_561615" type="Const" version="opset1">
			<data element_type="f32" shape="128, 1, 1, 1" offset="1021288" size="512" />
			<rt_info>
				<attribute name="fused_names" version="0" value="model.4.m.0.cv2.conv.weight" />
			</rt_info>
			<output>
				<port id="0" precision="FP32">
					<dim>128</dim>
					<dim>1</dim>
					<dim>1</dim>
					<dim>1</dim>
				</port>
			</output>
		</layer>
		<layer id="209" name="/model.4/m.0/cv2/conv/Conv/WithoutBiases/fq_weights_1" type="Multiply" version="opset1">
			<data auto_broadcast="numpy" />
			<rt_info>
				<attribute name="fused_names" version="0" value="model.4.m.0.cv2.conv.weight" />
			</rt_info>
			<input>
				<port id="0" precision="FP32">
					<dim>128</dim>
					<dim>128</dim>
					<dim>3</dim>
					<dim>3</dim>
				</port>
				<port id="1" precision="FP32">
					<dim>128</dim>
					<dim>1</dim>
					<dim>1</dim>
					<dim>1</dim>
				</port>
			</input>
			<output>
				<port id="2" precision="FP32">
					<dim>128</dim>
					<dim>128</dim>
					<dim>3</dim>
					<dim>3</dim>
				</port>
			</output>
		</layer>
		<layer id="210" name="/model.4/m.0/cv2/conv/Conv/WithoutBiases" type="Convolution" version="opset1">
			<data strides="1, 1" dilations="1, 1" pads_begin="1, 1" pads_end="1, 1" auto_pad="explicit" />
			<rt_info>
				<attribute name="fused_names" version="0" value="/model.4/m.0/cv2/conv/Conv/WithoutBiases" />
			</rt_info>
			<input>
				<port id="0" precision="FP32">
					<dim>1</dim>
					<dim>128</dim>
					<dim>80</dim>
					<dim>80</dim>
				</port>
				<port id="1" precision="FP32">
					<dim>128</dim>
					<dim>128</dim>
					<dim>3</dim>
					<dim>3</dim>
				</port>
			</input>
			<output>
				<port id="2" precision="FP32">
					<dim>1</dim>
					<dim>128</dim>
					<dim>80</dim>
					<dim>80</dim>
				</port>
			</output>
		</layer>
		<layer id="211" name="Reshape_451" type="Const" version="opset1">
			<data element_type="f32" shape="1, 128, 1, 1" offset="1021800" size="512" />
			<rt_info>
				<attribute name="fused_names" version="0" value="Reshape_451" />
			</rt_info>
			<output>
				<port id="0" precision="FP32">
					<dim>1</dim>
					<dim>128</dim>
					<dim>1</dim>
					<dim>1</dim>
				</port>
			</output>
		</layer>
		<layer id="212" name="/model.4/m.0/cv2/conv/Conv" type="Add" version="opset1">
			<data auto_broadcast="numpy" />
			<rt_info>
				<attribute name="fused_names" version="0" value="/model.4/m.0/cv2/conv/Conv" />
			</rt_info>
			<input>
				<port id="0" precision="FP32">
					<dim>1</dim>
					<dim>128</dim>
					<dim>80</dim>
					<dim>80</dim>
				</port>
				<port id="1" precision="FP32">
					<dim>1</dim>
					<dim>128</dim>
					<dim>1</dim>
					<dim>1</dim>
				</port>
			</input>
			<output>
				<port id="2" precision="FP32" names="/model.4/m.0/cv2/conv/Conv_output_0">
					<dim>1</dim>
					<dim>128</dim>
					<dim>80</dim>
					<dim>80</dim>
				</port>
			</output>
		</layer>
		<layer id="213" name="/model.4/m.0/cv2/act/Mul" type="Swish" version="opset4">
			<rt_info>
				<attribute name="fused_names" version="0" value="/model.4/m.0/cv2/act/Mul" />
			</rt_info>
			<input>
				<port id="0" precision="FP32">
					<dim>1</dim>
					<dim>128</dim>
					<dim>80</dim>
					<dim>80</dim>
				</port>
			</input>
			<output>
				<port id="1" precision="FP32" names="/model.4/m.0/cv2/act/Mul_output_0">
					<dim>1</dim>
					<dim>128</dim>
					<dim>80</dim>
					<dim>80</dim>
				</port>
			</output>
		</layer>
		<layer id="214" name="Constant_103543" type="Const" version="opset1">
			<data element_type="f32" shape="" offset="2292" size="4" />
			<rt_info>
				<attribute name="fused_names" version="0" value="Constant_103543" />
			</rt_info>
			<output>
				<port id="0" precision="FP32" />
			</output>
		</layer>
		<layer id="215" name="Constant_103544" type="Const" version="opset1">
			<data element_type="f32" shape="" offset="1022312" size="4" />
			<rt_info>
				<attribute name="fused_names" version="0" value="Constant_103544" />
			</rt_info>
			<output>
				<port id="0" precision="FP32" />
			</output>
		</layer>
		<layer id="216" name="Constant_103545" type="Const" version="opset1">
			<data element_type="f32" shape="" offset="2292" size="4" />
			<rt_info>
				<attribute name="fused_names" version="0" value="Constant_103545" />
			</rt_info>
			<output>
				<port id="0" precision="FP32" />
			</output>
		</layer>
		<layer id="217" name="Constant_103546" type="Const" version="opset1">
			<data element_type="f32" shape="" offset="1022312" size="4" />
			<rt_info>
				<attribute name="fused_names" version="0" value="Constant_103546" />
			</rt_info>
			<output>
				<port id="0" precision="FP32" />
			</output>
		</layer>
		<layer id="218" name="/model.4/m.0/cv2/act/Mul/fq_output_0" type="FakeQuantize" version="opset1">
			<data levels="256" auto_broadcast="numpy" />
			<rt_info>
				<attribute name="fused_names" version="0" value="/model.4/m.0/cv2/act/Mul/fq_output_0" />
			</rt_info>
			<input>
				<port id="0" precision="FP32">
					<dim>1</dim>
					<dim>128</dim>
					<dim>80</dim>
					<dim>80</dim>
				</port>
				<port id="1" precision="FP32" />
				<port id="2" precision="FP32" />
				<port id="3" precision="FP32" />
				<port id="4" precision="FP32" />
			</input>
			<output>
				<port id="5" precision="FP32">
					<dim>1</dim>
					<dim>128</dim>
					<dim>80</dim>
					<dim>80</dim>
				</port>
			</output>
		</layer>
		<layer id="219" name="/model.4/m.0/Add" type="Add" version="opset1">
			<data auto_broadcast="numpy" />
			<rt_info>
				<attribute name="fused_names" version="0" value="/model.4/m.0/Add" />
			</rt_info>
			<input>
				<port id="0" precision="FP32">
					<dim>1</dim>
					<dim>128</dim>
					<dim>80</dim>
					<dim>80</dim>
				</port>
				<port id="1" precision="FP32">
					<dim>1</dim>
					<dim>128</dim>
					<dim>80</dim>
					<dim>80</dim>
				</port>
			</input>
			<output>
				<port id="2" precision="FP32" names="/model.4/m.0/Add_output_0">
					<dim>1</dim>
					<dim>128</dim>
					<dim>80</dim>
					<dim>80</dim>
				</port>
			</output>
		</layer>
		<layer id="220" name="Constant_103218" type="Const" version="opset1">
			<data element_type="f32" shape="" offset="725324" size="4" />
			<rt_info>
				<attribute name="fused_names" version="0" value="Constant_103218" />
			</rt_info>
			<output>
				<port id="0" precision="FP32" />
			</output>
		</layer>
		<layer id="221" name="Constant_103219" type="Const" version="opset1">
			<data element_type="f32" shape="" offset="725328" size="4" />
			<rt_info>
				<attribute name="fused_names" version="0" value="Constant_103219" />
			</rt_info>
			<output>
				<port id="0" precision="FP32" />
			</output>
		</layer>
		<layer id="222" name="Constant_103220" type="Const" version="opset1">
			<data element_type="f32" shape="" offset="725324" size="4" />
			<rt_info>
				<attribute name="fused_names" version="0" value="Constant_103220" />
			</rt_info>
			<output>
				<port id="0" precision="FP32" />
			</output>
		</layer>
		<layer id="223" name="Constant_103221" type="Const" version="opset1">
			<data element_type="f32" shape="" offset="725328" size="4" />
			<rt_info>
				<attribute name="fused_names" version="0" value="Constant_103221" />
			</rt_info>
			<output>
				<port id="0" precision="FP32" />
			</output>
		</layer>
		<layer id="224" name="/model.4/m.0/Add/fq_output_0" type="FakeQuantize" version="opset1">
			<data levels="256" auto_broadcast="numpy" />
			<rt_info>
				<attribute name="fused_names" version="0" value="/model.4/m.0/Add/fq_output_0" />
			</rt_info>
			<input>
				<port id="0" precision="FP32">
					<dim>1</dim>
					<dim>128</dim>
					<dim>80</dim>
					<dim>80</dim>
				</port>
				<port id="1" precision="FP32" />
				<port id="2" precision="FP32" />
				<port id="3" precision="FP32" />
				<port id="4" precision="FP32" />
			</input>
			<output>
				<port id="5" precision="FP32">
					<dim>1</dim>
					<dim>128</dim>
					<dim>80</dim>
					<dim>80</dim>
				</port>
			</output>
		</layer>
		<layer id="225" name="model.4.m.1.cv1.conv.weight" type="Const" version="opset1">
			<data element_type="i8" shape="128, 128, 3, 3" offset="1022316" size="147456" />
			<rt_info>
				<attribute name="fused_names" version="0" value="model.4.m.1.cv1.conv.weight" />
			</rt_info>
			<output>
				<port id="0" precision="I8">
					<dim>128</dim>
					<dim>128</dim>
					<dim>3</dim>
					<dim>3</dim>
				</port>
			</output>
		</layer>
		<layer id="226" name="Convert_561871" type="Convert" version="opset1">
			<data destination_type="f32" />
			<rt_info>
				<attribute name="fused_names" version="0" value="model.4.m.1.cv1.conv.weight" />
			</rt_info>
			<input>
				<port id="0" precision="I8">
					<dim>128</dim>
					<dim>128</dim>
					<dim>3</dim>
					<dim>3</dim>
				</port>
			</input>
			<output>
				<port id="1" precision="FP32">
					<dim>128</dim>
					<dim>128</dim>
					<dim>3</dim>
					<dim>3</dim>
				</port>
			</output>
		</layer>
		<layer id="227" name="Constant_561769" type="Const" version="opset1">
			<data element_type="f32" shape="128, 1, 1, 1" offset="1169772" size="512" />
			<rt_info>
				<attribute name="fused_names" version="0" value="model.4.m.1.cv1.conv.weight" />
			</rt_info>
			<output>
				<port id="0" precision="FP32">
					<dim>128</dim>
					<dim>1</dim>
					<dim>1</dim>
					<dim>1</dim>
				</port>
			</output>
		</layer>
		<layer id="228" name="/model.4/m.1/cv1/conv/Conv/WithoutBiases/fq_weights_1" type="Multiply" version="opset1">
			<data auto_broadcast="numpy" />
			<rt_info>
				<attribute name="fused_names" version="0" value="model.4.m.1.cv1.conv.weight" />
			</rt_info>
			<input>
				<port id="0" precision="FP32">
					<dim>128</dim>
					<dim>128</dim>
					<dim>3</dim>
					<dim>3</dim>
				</port>
				<port id="1" precision="FP32">
					<dim>128</dim>
					<dim>1</dim>
					<dim>1</dim>
					<dim>1</dim>
				</port>
			</input>
			<output>
				<port id="2" precision="FP32">
					<dim>128</dim>
					<dim>128</dim>
					<dim>3</dim>
					<dim>3</dim>
				</port>
			</output>
		</layer>
		<layer id="229" name="/model.4/m.1/cv1/conv/Conv/WithoutBiases" type="Convolution" version="opset1">
			<data strides="1, 1" dilations="1, 1" pads_begin="1, 1" pads_end="1, 1" auto_pad="explicit" />
			<rt_info>
				<attribute name="fused_names" version="0" value="/model.4/m.1/cv1/conv/Conv/WithoutBiases" />
			</rt_info>
			<input>
				<port id="0" precision="FP32">
					<dim>1</dim>
					<dim>128</dim>
					<dim>80</dim>
					<dim>80</dim>
				</port>
				<port id="1" precision="FP32">
					<dim>128</dim>
					<dim>128</dim>
					<dim>3</dim>
					<dim>3</dim>
				</port>
			</input>
			<output>
				<port id="2" precision="FP32">
					<dim>1</dim>
					<dim>128</dim>
					<dim>80</dim>
					<dim>80</dim>
				</port>
			</output>
		</layer>
		<layer id="230" name="Reshape_469" type="Const" version="opset1">
			<data element_type="f32" shape="1, 128, 1, 1" offset="1170284" size="512" />
			<rt_info>
				<attribute name="fused_names" version="0" value="Reshape_469" />
			</rt_info>
			<output>
				<port id="0" precision="FP32">
					<dim>1</dim>
					<dim>128</dim>
					<dim>1</dim>
					<dim>1</dim>
				</port>
			</output>
		</layer>
		<layer id="231" name="/model.4/m.1/cv1/conv/Conv" type="Add" version="opset1">
			<data auto_broadcast="numpy" />
			<rt_info>
				<attribute name="fused_names" version="0" value="/model.4/m.1/cv1/conv/Conv" />
			</rt_info>
			<input>
				<port id="0" precision="FP32">
					<dim>1</dim>
					<dim>128</dim>
					<dim>80</dim>
					<dim>80</dim>
				</port>
				<port id="1" precision="FP32">
					<dim>1</dim>
					<dim>128</dim>
					<dim>1</dim>
					<dim>1</dim>
				</port>
			</input>
			<output>
				<port id="2" precision="FP32" names="/model.4/m.1/cv1/conv/Conv_output_0">
					<dim>1</dim>
					<dim>128</dim>
					<dim>80</dim>
					<dim>80</dim>
				</port>
			</output>
		</layer>
		<layer id="232" name="/model.4/m.1/cv1/act/Mul" type="Swish" version="opset4">
			<rt_info>
				<attribute name="fused_names" version="0" value="/model.4/m.1/cv1/act/Mul" />
			</rt_info>
			<input>
				<port id="0" precision="FP32">
					<dim>1</dim>
					<dim>128</dim>
					<dim>80</dim>
					<dim>80</dim>
				</port>
			</input>
			<output>
				<port id="1" precision="FP32" names="/model.4/m.1/cv1/act/Mul_output_0">
					<dim>1</dim>
					<dim>128</dim>
					<dim>80</dim>
					<dim>80</dim>
				</port>
			</output>
		</layer>
		<layer id="233" name="Constant_103553" type="Const" version="opset1">
			<data element_type="f32" shape="" offset="1170796" size="4" />
			<rt_info>
				<attribute name="fused_names" version="0" value="Constant_103553" />
			</rt_info>
			<output>
				<port id="0" precision="FP32" />
			</output>
		</layer>
		<layer id="234" name="Constant_103554" type="Const" version="opset1">
			<data element_type="f32" shape="" offset="1170800" size="4" />
			<rt_info>
				<attribute name="fused_names" version="0" value="Constant_103554" />
			</rt_info>
			<output>
				<port id="0" precision="FP32" />
			</output>
		</layer>
		<layer id="235" name="Constant_103555" type="Const" version="opset1">
			<data element_type="f32" shape="" offset="1170796" size="4" />
			<rt_info>
				<attribute name="fused_names" version="0" value="Constant_103555" />
			</rt_info>
			<output>
				<port id="0" precision="FP32" />
			</output>
		</layer>
		<layer id="236" name="Constant_103556" type="Const" version="opset1">
			<data element_type="f32" shape="" offset="1170800" size="4" />
			<rt_info>
				<attribute name="fused_names" version="0" value="Constant_103556" />
			</rt_info>
			<output>
				<port id="0" precision="FP32" />
			</output>
		</layer>
		<layer id="237" name="/model.4/m.1/cv1/act/Mul/fq_output_0" type="FakeQuantize" version="opset1">
			<data levels="256" auto_broadcast="numpy" />
			<rt_info>
				<attribute name="fused_names" version="0" value="/model.4/m.1/cv1/act/Mul/fq_output_0" />
			</rt_info>
			<input>
				<port id="0" precision="FP32">
					<dim>1</dim>
					<dim>128</dim>
					<dim>80</dim>
					<dim>80</dim>
				</port>
				<port id="1" precision="FP32" />
				<port id="2" precision="FP32" />
				<port id="3" precision="FP32" />
				<port id="4" precision="FP32" />
			</input>
			<output>
				<port id="5" precision="FP32">
					<dim>1</dim>
					<dim>128</dim>
					<dim>80</dim>
					<dim>80</dim>
				</port>
			</output>
		</layer>
		<layer id="238" name="model.4.m.1.cv2.conv.weight" type="Const" version="opset1">
			<data element_type="i8" shape="128, 128, 3, 3" offset="1170804" size="147456" />
			<rt_info>
				<attribute name="fused_names" version="0" value="model.4.m.1.cv2.conv.weight" />
			</rt_info>
			<output>
				<port id="0" precision="I8">
					<dim>128</dim>
					<dim>128</dim>
					<dim>3</dim>
					<dim>3</dim>
				</port>
			</output>
		</layer>
		<layer id="239" name="Convert_562025" type="Convert" version="opset1">
			<data destination_type="f32" />
			<rt_info>
				<attribute name="fused_names" version="0" value="model.4.m.1.cv2.conv.weight" />
			</rt_info>
			<input>
				<port id="0" precision="I8">
					<dim>128</dim>
					<dim>128</dim>
					<dim>3</dim>
					<dim>3</dim>
				</port>
			</input>
			<output>
				<port id="1" precision="FP32">
					<dim>128</dim>
					<dim>128</dim>
					<dim>3</dim>
					<dim>3</dim>
				</port>
			</output>
		</layer>
		<layer id="240" name="Constant_561923" type="Const" version="opset1">
			<data element_type="f32" shape="128, 1, 1, 1" offset="1318260" size="512" />
			<rt_info>
				<attribute name="fused_names" version="0" value="model.4.m.1.cv2.conv.weight" />
			</rt_info>
			<output>
				<port id="0" precision="FP32">
					<dim>128</dim>
					<dim>1</dim>
					<dim>1</dim>
					<dim>1</dim>
				</port>
			</output>
		</layer>
		<layer id="241" name="/model.4/m.1/cv2/conv/Conv/WithoutBiases/fq_weights_1" type="Multiply" version="opset1">
			<data auto_broadcast="numpy" />
			<rt_info>
				<attribute name="fused_names" version="0" value="model.4.m.1.cv2.conv.weight" />
			</rt_info>
			<input>
				<port id="0" precision="FP32">
					<dim>128</dim>
					<dim>128</dim>
					<dim>3</dim>
					<dim>3</dim>
				</port>
				<port id="1" precision="FP32">
					<dim>128</dim>
					<dim>1</dim>
					<dim>1</dim>
					<dim>1</dim>
				</port>
			</input>
			<output>
				<port id="2" precision="FP32">
					<dim>128</dim>
					<dim>128</dim>
					<dim>3</dim>
					<dim>3</dim>
				</port>
			</output>
		</layer>
		<layer id="242" name="/model.4/m.1/cv2/conv/Conv/WithoutBiases" type="Convolution" version="opset1">
			<data strides="1, 1" dilations="1, 1" pads_begin="1, 1" pads_end="1, 1" auto_pad="explicit" />
			<rt_info>
				<attribute name="fused_names" version="0" value="/model.4/m.1/cv2/conv/Conv/WithoutBiases" />
			</rt_info>
			<input>
				<port id="0" precision="FP32">
					<dim>1</dim>
					<dim>128</dim>
					<dim>80</dim>
					<dim>80</dim>
				</port>
				<port id="1" precision="FP32">
					<dim>128</dim>
					<dim>128</dim>
					<dim>3</dim>
					<dim>3</dim>
				</port>
			</input>
			<output>
				<port id="2" precision="FP32">
					<dim>1</dim>
					<dim>128</dim>
					<dim>80</dim>
					<dim>80</dim>
				</port>
			</output>
		</layer>
		<layer id="243" name="Reshape_486" type="Const" version="opset1">
			<data element_type="f32" shape="1, 128, 1, 1" offset="1318772" size="512" />
			<rt_info>
				<attribute name="fused_names" version="0" value="Reshape_486" />
			</rt_info>
			<output>
				<port id="0" precision="FP32">
					<dim>1</dim>
					<dim>128</dim>
					<dim>1</dim>
					<dim>1</dim>
				</port>
			</output>
		</layer>
		<layer id="244" name="/model.4/m.1/cv2/conv/Conv" type="Add" version="opset1">
			<data auto_broadcast="numpy" />
			<rt_info>
				<attribute name="fused_names" version="0" value="/model.4/m.1/cv2/conv/Conv" />
			</rt_info>
			<input>
				<port id="0" precision="FP32">
					<dim>1</dim>
					<dim>128</dim>
					<dim>80</dim>
					<dim>80</dim>
				</port>
				<port id="1" precision="FP32">
					<dim>1</dim>
					<dim>128</dim>
					<dim>1</dim>
					<dim>1</dim>
				</port>
			</input>
			<output>
				<port id="2" precision="FP32" names="/model.4/m.1/cv2/conv/Conv_output_0">
					<dim>1</dim>
					<dim>128</dim>
					<dim>80</dim>
					<dim>80</dim>
				</port>
			</output>
		</layer>
		<layer id="245" name="/model.4/m.1/cv2/act/Mul" type="Swish" version="opset4">
			<rt_info>
				<attribute name="fused_names" version="0" value="/model.4/m.1/cv2/act/Mul" />
			</rt_info>
			<input>
				<port id="0" precision="FP32">
					<dim>1</dim>
					<dim>128</dim>
					<dim>80</dim>
					<dim>80</dim>
				</port>
			</input>
			<output>
				<port id="1" precision="FP32" names="/model.4/m.1/cv2/act/Mul_output_0">
					<dim>1</dim>
					<dim>128</dim>
					<dim>80</dim>
					<dim>80</dim>
				</port>
			</output>
		</layer>
		<layer id="246" name="Constant_103563" type="Const" version="opset1">
			<data element_type="f32" shape="" offset="1319284" size="4" />
			<rt_info>
				<attribute name="fused_names" version="0" value="Constant_103563" />
			</rt_info>
			<output>
				<port id="0" precision="FP32" />
			</output>
		</layer>
		<layer id="247" name="Constant_103564" type="Const" version="opset1">
			<data element_type="f32" shape="" offset="1319288" size="4" />
			<rt_info>
				<attribute name="fused_names" version="0" value="Constant_103564" />
			</rt_info>
			<output>
				<port id="0" precision="FP32" />
			</output>
		</layer>
		<layer id="248" name="Constant_103565" type="Const" version="opset1">
			<data element_type="f32" shape="" offset="1319284" size="4" />
			<rt_info>
				<attribute name="fused_names" version="0" value="Constant_103565" />
			</rt_info>
			<output>
				<port id="0" precision="FP32" />
			</output>
		</layer>
		<layer id="249" name="Constant_103566" type="Const" version="opset1">
			<data element_type="f32" shape="" offset="1319288" size="4" />
			<rt_info>
				<attribute name="fused_names" version="0" value="Constant_103566" />
			</rt_info>
			<output>
				<port id="0" precision="FP32" />
			</output>
		</layer>
		<layer id="250" name="/model.4/m.1/cv2/act/Mul/fq_output_0" type="FakeQuantize" version="opset1">
			<data levels="256" auto_broadcast="numpy" />
			<rt_info>
				<attribute name="fused_names" version="0" value="/model.4/m.1/cv2/act/Mul/fq_output_0" />
			</rt_info>
			<input>
				<port id="0" precision="FP32">
					<dim>1</dim>
					<dim>128</dim>
					<dim>80</dim>
					<dim>80</dim>
				</port>
				<port id="1" precision="FP32" />
				<port id="2" precision="FP32" />
				<port id="3" precision="FP32" />
				<port id="4" precision="FP32" />
			</input>
			<output>
				<port id="5" precision="FP32">
					<dim>1</dim>
					<dim>128</dim>
					<dim>80</dim>
					<dim>80</dim>
				</port>
			</output>
		</layer>
		<layer id="251" name="/model.4/m.1/Add" type="Add" version="opset1">
			<data auto_broadcast="numpy" />
			<rt_info>
				<attribute name="fused_names" version="0" value="/model.4/m.1/Add" />
			</rt_info>
			<input>
				<port id="0" precision="FP32">
					<dim>1</dim>
					<dim>128</dim>
					<dim>80</dim>
					<dim>80</dim>
				</port>
				<port id="1" precision="FP32">
					<dim>1</dim>
					<dim>128</dim>
					<dim>80</dim>
					<dim>80</dim>
				</port>
			</input>
			<output>
				<port id="2" precision="FP32" names="/model.4/m.1/Add_output_0">
					<dim>1</dim>
					<dim>128</dim>
					<dim>80</dim>
					<dim>80</dim>
				</port>
			</output>
		</layer>
		<layer id="252" name="Constant_103223" type="Const" version="opset1">
			<data element_type="f32" shape="" offset="725324" size="4" />
			<rt_info>
				<attribute name="fused_names" version="0" value="Constant_103223" />
			</rt_info>
			<output>
				<port id="0" precision="FP32" />
			</output>
		</layer>
		<layer id="253" name="Constant_103224" type="Const" version="opset1">
			<data element_type="f32" shape="" offset="725328" size="4" />
			<rt_info>
				<attribute name="fused_names" version="0" value="Constant_103224" />
			</rt_info>
			<output>
				<port id="0" precision="FP32" />
			</output>
		</layer>
		<layer id="254" name="Constant_103225" type="Const" version="opset1">
			<data element_type="f32" shape="" offset="725324" size="4" />
			<rt_info>
				<attribute name="fused_names" version="0" value="Constant_103225" />
			</rt_info>
			<output>
				<port id="0" precision="FP32" />
			</output>
		</layer>
		<layer id="255" name="Constant_103226" type="Const" version="opset1">
			<data element_type="f32" shape="" offset="725328" size="4" />
			<rt_info>
				<attribute name="fused_names" version="0" value="Constant_103226" />
			</rt_info>
			<output>
				<port id="0" precision="FP32" />
			</output>
		</layer>
		<layer id="256" name="/model.4/m.1/Add/fq_output_0" type="FakeQuantize" version="opset1">
			<data levels="256" auto_broadcast="numpy" />
			<rt_info>
				<attribute name="fused_names" version="0" value="/model.4/m.1/Add/fq_output_0" />
			</rt_info>
			<input>
				<port id="0" precision="FP32">
					<dim>1</dim>
					<dim>128</dim>
					<dim>80</dim>
					<dim>80</dim>
				</port>
				<port id="1" precision="FP32" />
				<port id="2" precision="FP32" />
				<port id="3" precision="FP32" />
				<port id="4" precision="FP32" />
			</input>
			<output>
				<port id="5" precision="FP32">
					<dim>1</dim>
					<dim>128</dim>
					<dim>80</dim>
					<dim>80</dim>
				</port>
			</output>
		</layer>
		<layer id="257" name="model.4.m.2.cv1.conv.weight" type="Const" version="opset1">
			<data element_type="i8" shape="128, 128, 3, 3" offset="1319292" size="147456" />
			<rt_info>
				<attribute name="fused_names" version="0" value="model.4.m.2.cv1.conv.weight" />
			</rt_info>
			<output>
				<port id="0" precision="I8">
					<dim>128</dim>
					<dim>128</dim>
					<dim>3</dim>
					<dim>3</dim>
				</port>
			</output>
		</layer>
		<layer id="258" name="Convert_562179" type="Convert" version="opset1">
			<data destination_type="f32" />
			<rt_info>
				<attribute name="fused_names" version="0" value="model.4.m.2.cv1.conv.weight" />
			</rt_info>
			<input>
				<port id="0" precision="I8">
					<dim>128</dim>
					<dim>128</dim>
					<dim>3</dim>
					<dim>3</dim>
				</port>
			</input>
			<output>
				<port id="1" precision="FP32">
					<dim>128</dim>
					<dim>128</dim>
					<dim>3</dim>
					<dim>3</dim>
				</port>
			</output>
		</layer>
		<layer id="259" name="Constant_562077" type="Const" version="opset1">
			<data element_type="f32" shape="128, 1, 1, 1" offset="1466748" size="512" />
			<rt_info>
				<attribute name="fused_names" version="0" value="model.4.m.2.cv1.conv.weight" />
			</rt_info>
			<output>
				<port id="0" precision="FP32">
					<dim>128</dim>
					<dim>1</dim>
					<dim>1</dim>
					<dim>1</dim>
				</port>
			</output>
		</layer>
		<layer id="260" name="/model.4/m.2/cv1/conv/Conv/WithoutBiases/fq_weights_1" type="Multiply" version="opset1">
			<data auto_broadcast="numpy" />
			<rt_info>
				<attribute name="fused_names" version="0" value="model.4.m.2.cv1.conv.weight" />
			</rt_info>
			<input>
				<port id="0" precision="FP32">
					<dim>128</dim>
					<dim>128</dim>
					<dim>3</dim>
					<dim>3</dim>
				</port>
				<port id="1" precision="FP32">
					<dim>128</dim>
					<dim>1</dim>
					<dim>1</dim>
					<dim>1</dim>
				</port>
			</input>
			<output>
				<port id="2" precision="FP32">
					<dim>128</dim>
					<dim>128</dim>
					<dim>3</dim>
					<dim>3</dim>
				</port>
			</output>
		</layer>
		<layer id="261" name="/model.4/m.2/cv1/conv/Conv/WithoutBiases" type="Convolution" version="opset1">
			<data strides="1, 1" dilations="1, 1" pads_begin="1, 1" pads_end="1, 1" auto_pad="explicit" />
			<rt_info>
				<attribute name="fused_names" version="0" value="/model.4/m.2/cv1/conv/Conv/WithoutBiases" />
			</rt_info>
			<input>
				<port id="0" precision="FP32">
					<dim>1</dim>
					<dim>128</dim>
					<dim>80</dim>
					<dim>80</dim>
				</port>
				<port id="1" precision="FP32">
					<dim>128</dim>
					<dim>128</dim>
					<dim>3</dim>
					<dim>3</dim>
				</port>
			</input>
			<output>
				<port id="2" precision="FP32">
					<dim>1</dim>
					<dim>128</dim>
					<dim>80</dim>
					<dim>80</dim>
				</port>
			</output>
		</layer>
		<layer id="262" name="Reshape_504" type="Const" version="opset1">
			<data element_type="f32" shape="1, 128, 1, 1" offset="1467260" size="512" />
			<rt_info>
				<attribute name="fused_names" version="0" value="Reshape_504" />
			</rt_info>
			<output>
				<port id="0" precision="FP32">
					<dim>1</dim>
					<dim>128</dim>
					<dim>1</dim>
					<dim>1</dim>
				</port>
			</output>
		</layer>
		<layer id="263" name="/model.4/m.2/cv1/conv/Conv" type="Add" version="opset1">
			<data auto_broadcast="numpy" />
			<rt_info>
				<attribute name="fused_names" version="0" value="/model.4/m.2/cv1/conv/Conv" />
			</rt_info>
			<input>
				<port id="0" precision="FP32">
					<dim>1</dim>
					<dim>128</dim>
					<dim>80</dim>
					<dim>80</dim>
				</port>
				<port id="1" precision="FP32">
					<dim>1</dim>
					<dim>128</dim>
					<dim>1</dim>
					<dim>1</dim>
				</port>
			</input>
			<output>
				<port id="2" precision="FP32" names="/model.4/m.2/cv1/conv/Conv_output_0">
					<dim>1</dim>
					<dim>128</dim>
					<dim>80</dim>
					<dim>80</dim>
				</port>
			</output>
		</layer>
		<layer id="264" name="/model.4/m.2/cv1/act/Mul" type="Swish" version="opset4">
			<rt_info>
				<attribute name="fused_names" version="0" value="/model.4/m.2/cv1/act/Mul" />
			</rt_info>
			<input>
				<port id="0" precision="FP32">
					<dim>1</dim>
					<dim>128</dim>
					<dim>80</dim>
					<dim>80</dim>
				</port>
			</input>
			<output>
				<port id="1" precision="FP32" names="/model.4/m.2/cv1/act/Mul_output_0">
					<dim>1</dim>
					<dim>128</dim>
					<dim>80</dim>
					<dim>80</dim>
				</port>
			</output>
		</layer>
		<layer id="265" name="Constant_103573" type="Const" version="opset1">
			<data element_type="f32" shape="" offset="1467772" size="4" />
			<rt_info>
				<attribute name="fused_names" version="0" value="Constant_103573" />
			</rt_info>
			<output>
				<port id="0" precision="FP32" />
			</output>
		</layer>
		<layer id="266" name="Constant_103574" type="Const" version="opset1">
			<data element_type="f32" shape="" offset="1467776" size="4" />
			<rt_info>
				<attribute name="fused_names" version="0" value="Constant_103574" />
			</rt_info>
			<output>
				<port id="0" precision="FP32" />
			</output>
		</layer>
		<layer id="267" name="Constant_103575" type="Const" version="opset1">
			<data element_type="f32" shape="" offset="1467772" size="4" />
			<rt_info>
				<attribute name="fused_names" version="0" value="Constant_103575" />
			</rt_info>
			<output>
				<port id="0" precision="FP32" />
			</output>
		</layer>
		<layer id="268" name="Constant_103576" type="Const" version="opset1">
			<data element_type="f32" shape="" offset="1467776" size="4" />
			<rt_info>
				<attribute name="fused_names" version="0" value="Constant_103576" />
			</rt_info>
			<output>
				<port id="0" precision="FP32" />
			</output>
		</layer>
		<layer id="269" name="/model.4/m.2/cv1/act/Mul/fq_output_0" type="FakeQuantize" version="opset1">
			<data levels="256" auto_broadcast="numpy" />
			<rt_info>
				<attribute name="fused_names" version="0" value="/model.4/m.2/cv1/act/Mul/fq_output_0" />
			</rt_info>
			<input>
				<port id="0" precision="FP32">
					<dim>1</dim>
					<dim>128</dim>
					<dim>80</dim>
					<dim>80</dim>
				</port>
				<port id="1" precision="FP32" />
				<port id="2" precision="FP32" />
				<port id="3" precision="FP32" />
				<port id="4" precision="FP32" />
			</input>
			<output>
				<port id="5" precision="FP32">
					<dim>1</dim>
					<dim>128</dim>
					<dim>80</dim>
					<dim>80</dim>
				</port>
			</output>
		</layer>
		<layer id="270" name="model.4.m.2.cv2.conv.weight" type="Const" version="opset1">
			<data element_type="i8" shape="128, 128, 3, 3" offset="1467780" size="147456" />
			<rt_info>
				<attribute name="fused_names" version="0" value="model.4.m.2.cv2.conv.weight" />
			</rt_info>
			<output>
				<port id="0" precision="I8">
					<dim>128</dim>
					<dim>128</dim>
					<dim>3</dim>
					<dim>3</dim>
				</port>
			</output>
		</layer>
		<layer id="271" name="Convert_562333" type="Convert" version="opset1">
			<data destination_type="f32" />
			<rt_info>
				<attribute name="fused_names" version="0" value="model.4.m.2.cv2.conv.weight" />
			</rt_info>
			<input>
				<port id="0" precision="I8">
					<dim>128</dim>
					<dim>128</dim>
					<dim>3</dim>
					<dim>3</dim>
				</port>
			</input>
			<output>
				<port id="1" precision="FP32">
					<dim>128</dim>
					<dim>128</dim>
					<dim>3</dim>
					<dim>3</dim>
				</port>
			</output>
		</layer>
		<layer id="272" name="Constant_562231" type="Const" version="opset1">
			<data element_type="f32" shape="128, 1, 1, 1" offset="1615236" size="512" />
			<rt_info>
				<attribute name="fused_names" version="0" value="model.4.m.2.cv2.conv.weight" />
			</rt_info>
			<output>
				<port id="0" precision="FP32">
					<dim>128</dim>
					<dim>1</dim>
					<dim>1</dim>
					<dim>1</dim>
				</port>
			</output>
		</layer>
		<layer id="273" name="/model.4/m.2/cv2/conv/Conv/WithoutBiases/fq_weights_1" type="Multiply" version="opset1">
			<data auto_broadcast="numpy" />
			<rt_info>
				<attribute name="fused_names" version="0" value="model.4.m.2.cv2.conv.weight" />
			</rt_info>
			<input>
				<port id="0" precision="FP32">
					<dim>128</dim>
					<dim>128</dim>
					<dim>3</dim>
					<dim>3</dim>
				</port>
				<port id="1" precision="FP32">
					<dim>128</dim>
					<dim>1</dim>
					<dim>1</dim>
					<dim>1</dim>
				</port>
			</input>
			<output>
				<port id="2" precision="FP32">
					<dim>128</dim>
					<dim>128</dim>
					<dim>3</dim>
					<dim>3</dim>
				</port>
			</output>
		</layer>
		<layer id="274" name="/model.4/m.2/cv2/conv/Conv/WithoutBiases" type="Convolution" version="opset1">
			<data strides="1, 1" dilations="1, 1" pads_begin="1, 1" pads_end="1, 1" auto_pad="explicit" />
			<rt_info>
				<attribute name="fused_names" version="0" value="/model.4/m.2/cv2/conv/Conv/WithoutBiases" />
			</rt_info>
			<input>
				<port id="0" precision="FP32">
					<dim>1</dim>
					<dim>128</dim>
					<dim>80</dim>
					<dim>80</dim>
				</port>
				<port id="1" precision="FP32">
					<dim>128</dim>
					<dim>128</dim>
					<dim>3</dim>
					<dim>3</dim>
				</port>
			</input>
			<output>
				<port id="2" precision="FP32">
					<dim>1</dim>
					<dim>128</dim>
					<dim>80</dim>
					<dim>80</dim>
				</port>
			</output>
		</layer>
		<layer id="275" name="Reshape_521" type="Const" version="opset1">
			<data element_type="f32" shape="1, 128, 1, 1" offset="1615748" size="512" />
			<rt_info>
				<attribute name="fused_names" version="0" value="Reshape_521" />
			</rt_info>
			<output>
				<port id="0" precision="FP32">
					<dim>1</dim>
					<dim>128</dim>
					<dim>1</dim>
					<dim>1</dim>
				</port>
			</output>
		</layer>
		<layer id="276" name="/model.4/m.2/cv2/conv/Conv" type="Add" version="opset1">
			<data auto_broadcast="numpy" />
			<rt_info>
				<attribute name="fused_names" version="0" value="/model.4/m.2/cv2/conv/Conv" />
			</rt_info>
			<input>
				<port id="0" precision="FP32">
					<dim>1</dim>
					<dim>128</dim>
					<dim>80</dim>
					<dim>80</dim>
				</port>
				<port id="1" precision="FP32">
					<dim>1</dim>
					<dim>128</dim>
					<dim>1</dim>
					<dim>1</dim>
				</port>
			</input>
			<output>
				<port id="2" precision="FP32" names="/model.4/m.2/cv2/conv/Conv_output_0">
					<dim>1</dim>
					<dim>128</dim>
					<dim>80</dim>
					<dim>80</dim>
				</port>
			</output>
		</layer>
		<layer id="277" name="/model.4/m.2/cv2/act/Mul" type="Swish" version="opset4">
			<rt_info>
				<attribute name="fused_names" version="0" value="/model.4/m.2/cv2/act/Mul" />
			</rt_info>
			<input>
				<port id="0" precision="FP32">
					<dim>1</dim>
					<dim>128</dim>
					<dim>80</dim>
					<dim>80</dim>
				</port>
			</input>
			<output>
				<port id="1" precision="FP32" names="/model.4/m.2/cv2/act/Mul_output_0">
					<dim>1</dim>
					<dim>128</dim>
					<dim>80</dim>
					<dim>80</dim>
				</port>
			</output>
		</layer>
		<layer id="278" name="Constant_103583" type="Const" version="opset1">
			<data element_type="f32" shape="" offset="2292" size="4" />
			<rt_info>
				<attribute name="fused_names" version="0" value="Constant_103583" />
			</rt_info>
			<output>
				<port id="0" precision="FP32" />
			</output>
		</layer>
		<layer id="279" name="Constant_103584" type="Const" version="opset1">
			<data element_type="f32" shape="" offset="1616260" size="4" />
			<rt_info>
				<attribute name="fused_names" version="0" value="Constant_103584" />
			</rt_info>
			<output>
				<port id="0" precision="FP32" />
			</output>
		</layer>
		<layer id="280" name="Constant_103585" type="Const" version="opset1">
			<data element_type="f32" shape="" offset="2292" size="4" />
			<rt_info>
				<attribute name="fused_names" version="0" value="Constant_103585" />
			</rt_info>
			<output>
				<port id="0" precision="FP32" />
			</output>
		</layer>
		<layer id="281" name="Constant_103586" type="Const" version="opset1">
			<data element_type="f32" shape="" offset="1616260" size="4" />
			<rt_info>
				<attribute name="fused_names" version="0" value="Constant_103586" />
			</rt_info>
			<output>
				<port id="0" precision="FP32" />
			</output>
		</layer>
		<layer id="282" name="/model.4/m.2/cv2/act/Mul/fq_output_0" type="FakeQuantize" version="opset1">
			<data levels="256" auto_broadcast="numpy" />
			<rt_info>
				<attribute name="fused_names" version="0" value="/model.4/m.2/cv2/act/Mul/fq_output_0" />
			</rt_info>
			<input>
				<port id="0" precision="FP32">
					<dim>1</dim>
					<dim>128</dim>
					<dim>80</dim>
					<dim>80</dim>
				</port>
				<port id="1" precision="FP32" />
				<port id="2" precision="FP32" />
				<port id="3" precision="FP32" />
				<port id="4" precision="FP32" />
			</input>
			<output>
				<port id="5" precision="FP32">
					<dim>1</dim>
					<dim>128</dim>
					<dim>80</dim>
					<dim>80</dim>
				</port>
			</output>
		</layer>
		<layer id="283" name="/model.4/m.2/Add" type="Add" version="opset1">
			<data auto_broadcast="numpy" />
			<rt_info>
				<attribute name="fused_names" version="0" value="/model.4/m.2/Add" />
			</rt_info>
			<input>
				<port id="0" precision="FP32">
					<dim>1</dim>
					<dim>128</dim>
					<dim>80</dim>
					<dim>80</dim>
				</port>
				<port id="1" precision="FP32">
					<dim>1</dim>
					<dim>128</dim>
					<dim>80</dim>
					<dim>80</dim>
				</port>
			</input>
			<output>
				<port id="2" precision="FP32" names="/model.4/m.2/Add_output_0">
					<dim>1</dim>
					<dim>128</dim>
					<dim>80</dim>
					<dim>80</dim>
				</port>
			</output>
		</layer>
		<layer id="284" name="Constant_103228" type="Const" version="opset1">
			<data element_type="f32" shape="" offset="725324" size="4" />
			<rt_info>
				<attribute name="fused_names" version="0" value="Constant_103228" />
			</rt_info>
			<output>
				<port id="0" precision="FP32" />
			</output>
		</layer>
		<layer id="285" name="Constant_103229" type="Const" version="opset1">
			<data element_type="f32" shape="" offset="725328" size="4" />
			<rt_info>
				<attribute name="fused_names" version="0" value="Constant_103229" />
			</rt_info>
			<output>
				<port id="0" precision="FP32" />
			</output>
		</layer>
		<layer id="286" name="Constant_103230" type="Const" version="opset1">
			<data element_type="f32" shape="" offset="725324" size="4" />
			<rt_info>
				<attribute name="fused_names" version="0" value="Constant_103230" />
			</rt_info>
			<output>
				<port id="0" precision="FP32" />
			</output>
		</layer>
		<layer id="287" name="Constant_103231" type="Const" version="opset1">
			<data element_type="f32" shape="" offset="725328" size="4" />
			<rt_info>
				<attribute name="fused_names" version="0" value="Constant_103231" />
			</rt_info>
			<output>
				<port id="0" precision="FP32" />
			</output>
		</layer>
		<layer id="288" name="/model.4/m.2/Add/fq_output_0" type="FakeQuantize" version="opset1">
			<data levels="256" auto_broadcast="numpy" />
			<rt_info>
				<attribute name="fused_names" version="0" value="/model.4/m.2/Add/fq_output_0" />
			</rt_info>
			<input>
				<port id="0" precision="FP32">
					<dim>1</dim>
					<dim>128</dim>
					<dim>80</dim>
					<dim>80</dim>
				</port>
				<port id="1" precision="FP32" />
				<port id="2" precision="FP32" />
				<port id="3" precision="FP32" />
				<port id="4" precision="FP32" />
			</input>
			<output>
				<port id="5" precision="FP32">
					<dim>1</dim>
					<dim>128</dim>
					<dim>80</dim>
					<dim>80</dim>
				</port>
			</output>
		</layer>
		<layer id="289" name="model.4.m.3.cv1.conv.weight" type="Const" version="opset1">
			<data element_type="i8" shape="128, 128, 3, 3" offset="1616264" size="147456" />
			<rt_info>
				<attribute name="fused_names" version="0" value="model.4.m.3.cv1.conv.weight" />
			</rt_info>
			<output>
				<port id="0" precision="I8">
					<dim>128</dim>
					<dim>128</dim>
					<dim>3</dim>
					<dim>3</dim>
				</port>
			</output>
		</layer>
		<layer id="290" name="Convert_562487" type="Convert" version="opset1">
			<data destination_type="f32" />
			<rt_info>
				<attribute name="fused_names" version="0" value="model.4.m.3.cv1.conv.weight" />
			</rt_info>
			<input>
				<port id="0" precision="I8">
					<dim>128</dim>
					<dim>128</dim>
					<dim>3</dim>
					<dim>3</dim>
				</port>
			</input>
			<output>
				<port id="1" precision="FP32">
					<dim>128</dim>
					<dim>128</dim>
					<dim>3</dim>
					<dim>3</dim>
				</port>
			</output>
		</layer>
		<layer id="291" name="Constant_562385" type="Const" version="opset1">
			<data element_type="f32" shape="128, 1, 1, 1" offset="1763720" size="512" />
			<rt_info>
				<attribute name="fused_names" version="0" value="model.4.m.3.cv1.conv.weight" />
			</rt_info>
			<output>
				<port id="0" precision="FP32">
					<dim>128</dim>
					<dim>1</dim>
					<dim>1</dim>
					<dim>1</dim>
				</port>
			</output>
		</layer>
		<layer id="292" name="/model.4/m.3/cv1/conv/Conv/WithoutBiases/fq_weights_1" type="Multiply" version="opset1">
			<data auto_broadcast="numpy" />
			<rt_info>
				<attribute name="fused_names" version="0" value="model.4.m.3.cv1.conv.weight" />
			</rt_info>
			<input>
				<port id="0" precision="FP32">
					<dim>128</dim>
					<dim>128</dim>
					<dim>3</dim>
					<dim>3</dim>
				</port>
				<port id="1" precision="FP32">
					<dim>128</dim>
					<dim>1</dim>
					<dim>1</dim>
					<dim>1</dim>
				</port>
			</input>
			<output>
				<port id="2" precision="FP32">
					<dim>128</dim>
					<dim>128</dim>
					<dim>3</dim>
					<dim>3</dim>
				</port>
			</output>
		</layer>
		<layer id="293" name="/model.4/m.3/cv1/conv/Conv/WithoutBiases" type="Convolution" version="opset1">
			<data strides="1, 1" dilations="1, 1" pads_begin="1, 1" pads_end="1, 1" auto_pad="explicit" />
			<rt_info>
				<attribute name="fused_names" version="0" value="/model.4/m.3/cv1/conv/Conv/WithoutBiases" />
			</rt_info>
			<input>
				<port id="0" precision="FP32">
					<dim>1</dim>
					<dim>128</dim>
					<dim>80</dim>
					<dim>80</dim>
				</port>
				<port id="1" precision="FP32">
					<dim>128</dim>
					<dim>128</dim>
					<dim>3</dim>
					<dim>3</dim>
				</port>
			</input>
			<output>
				<port id="2" precision="FP32">
					<dim>1</dim>
					<dim>128</dim>
					<dim>80</dim>
					<dim>80</dim>
				</port>
			</output>
		</layer>
		<layer id="294" name="Reshape_539" type="Const" version="opset1">
			<data element_type="f32" shape="1, 128, 1, 1" offset="1764232" size="512" />
			<rt_info>
				<attribute name="fused_names" version="0" value="Reshape_539" />
			</rt_info>
			<output>
				<port id="0" precision="FP32">
					<dim>1</dim>
					<dim>128</dim>
					<dim>1</dim>
					<dim>1</dim>
				</port>
			</output>
		</layer>
		<layer id="295" name="/model.4/m.3/cv1/conv/Conv" type="Add" version="opset1">
			<data auto_broadcast="numpy" />
			<rt_info>
				<attribute name="fused_names" version="0" value="/model.4/m.3/cv1/conv/Conv" />
			</rt_info>
			<input>
				<port id="0" precision="FP32">
					<dim>1</dim>
					<dim>128</dim>
					<dim>80</dim>
					<dim>80</dim>
				</port>
				<port id="1" precision="FP32">
					<dim>1</dim>
					<dim>128</dim>
					<dim>1</dim>
					<dim>1</dim>
				</port>
			</input>
			<output>
				<port id="2" precision="FP32" names="/model.4/m.3/cv1/conv/Conv_output_0">
					<dim>1</dim>
					<dim>128</dim>
					<dim>80</dim>
					<dim>80</dim>
				</port>
			</output>
		</layer>
		<layer id="296" name="/model.4/m.3/cv1/act/Mul" type="Swish" version="opset4">
			<rt_info>
				<attribute name="fused_names" version="0" value="/model.4/m.3/cv1/act/Mul" />
			</rt_info>
			<input>
				<port id="0" precision="FP32">
					<dim>1</dim>
					<dim>128</dim>
					<dim>80</dim>
					<dim>80</dim>
				</port>
			</input>
			<output>
				<port id="1" precision="FP32" names="/model.4/m.3/cv1/act/Mul_output_0">
					<dim>1</dim>
					<dim>128</dim>
					<dim>80</dim>
					<dim>80</dim>
				</port>
			</output>
		</layer>
		<layer id="297" name="Constant_103593" type="Const" version="opset1">
			<data element_type="f32" shape="" offset="1764744" size="4" />
			<rt_info>
				<attribute name="fused_names" version="0" value="Constant_103593" />
			</rt_info>
			<output>
				<port id="0" precision="FP32" />
			</output>
		</layer>
		<layer id="298" name="Constant_103594" type="Const" version="opset1">
			<data element_type="f32" shape="" offset="1764748" size="4" />
			<rt_info>
				<attribute name="fused_names" version="0" value="Constant_103594" />
			</rt_info>
			<output>
				<port id="0" precision="FP32" />
			</output>
		</layer>
		<layer id="299" name="Constant_103595" type="Const" version="opset1">
			<data element_type="f32" shape="" offset="1764744" size="4" />
			<rt_info>
				<attribute name="fused_names" version="0" value="Constant_103595" />
			</rt_info>
			<output>
				<port id="0" precision="FP32" />
			</output>
		</layer>
		<layer id="300" name="Constant_103596" type="Const" version="opset1">
			<data element_type="f32" shape="" offset="1764748" size="4" />
			<rt_info>
				<attribute name="fused_names" version="0" value="Constant_103596" />
			</rt_info>
			<output>
				<port id="0" precision="FP32" />
			</output>
		</layer>
		<layer id="301" name="/model.4/m.3/cv1/act/Mul/fq_output_0" type="FakeQuantize" version="opset1">
			<data levels="256" auto_broadcast="numpy" />
			<rt_info>
				<attribute name="fused_names" version="0" value="/model.4/m.3/cv1/act/Mul/fq_output_0" />
			</rt_info>
			<input>
				<port id="0" precision="FP32">
					<dim>1</dim>
					<dim>128</dim>
					<dim>80</dim>
					<dim>80</dim>
				</port>
				<port id="1" precision="FP32" />
				<port id="2" precision="FP32" />
				<port id="3" precision="FP32" />
				<port id="4" precision="FP32" />
			</input>
			<output>
				<port id="5" precision="FP32">
					<dim>1</dim>
					<dim>128</dim>
					<dim>80</dim>
					<dim>80</dim>
				</port>
			</output>
		</layer>
		<layer id="302" name="model.4.m.3.cv2.conv.weight" type="Const" version="opset1">
			<data element_type="i8" shape="128, 128, 3, 3" offset="1764752" size="147456" />
			<rt_info>
				<attribute name="fused_names" version="0" value="model.4.m.3.cv2.conv.weight" />
			</rt_info>
			<output>
				<port id="0" precision="I8">
					<dim>128</dim>
					<dim>128</dim>
					<dim>3</dim>
					<dim>3</dim>
				</port>
			</output>
		</layer>
		<layer id="303" name="Convert_562641" type="Convert" version="opset1">
			<data destination_type="f32" />
			<rt_info>
				<attribute name="fused_names" version="0" value="model.4.m.3.cv2.conv.weight" />
			</rt_info>
			<input>
				<port id="0" precision="I8">
					<dim>128</dim>
					<dim>128</dim>
					<dim>3</dim>
					<dim>3</dim>
				</port>
			</input>
			<output>
				<port id="1" precision="FP32">
					<dim>128</dim>
					<dim>128</dim>
					<dim>3</dim>
					<dim>3</dim>
				</port>
			</output>
		</layer>
		<layer id="304" name="Constant_562539" type="Const" version="opset1">
			<data element_type="f32" shape="128, 1, 1, 1" offset="1912208" size="512" />
			<rt_info>
				<attribute name="fused_names" version="0" value="model.4.m.3.cv2.conv.weight" />
			</rt_info>
			<output>
				<port id="0" precision="FP32">
					<dim>128</dim>
					<dim>1</dim>
					<dim>1</dim>
					<dim>1</dim>
				</port>
			</output>
		</layer>
		<layer id="305" name="/model.4/m.3/cv2/conv/Conv/WithoutBiases/fq_weights_1" type="Multiply" version="opset1">
			<data auto_broadcast="numpy" />
			<rt_info>
				<attribute name="fused_names" version="0" value="model.4.m.3.cv2.conv.weight" />
			</rt_info>
			<input>
				<port id="0" precision="FP32">
					<dim>128</dim>
					<dim>128</dim>
					<dim>3</dim>
					<dim>3</dim>
				</port>
				<port id="1" precision="FP32">
					<dim>128</dim>
					<dim>1</dim>
					<dim>1</dim>
					<dim>1</dim>
				</port>
			</input>
			<output>
				<port id="2" precision="FP32">
					<dim>128</dim>
					<dim>128</dim>
					<dim>3</dim>
					<dim>3</dim>
				</port>
			</output>
		</layer>
		<layer id="306" name="/model.4/m.3/cv2/conv/Conv/WithoutBiases" type="Convolution" version="opset1">
			<data strides="1, 1" dilations="1, 1" pads_begin="1, 1" pads_end="1, 1" auto_pad="explicit" />
			<rt_info>
				<attribute name="fused_names" version="0" value="/model.4/m.3/cv2/conv/Conv/WithoutBiases" />
			</rt_info>
			<input>
				<port id="0" precision="FP32">
					<dim>1</dim>
					<dim>128</dim>
					<dim>80</dim>
					<dim>80</dim>
				</port>
				<port id="1" precision="FP32">
					<dim>128</dim>
					<dim>128</dim>
					<dim>3</dim>
					<dim>3</dim>
				</port>
			</input>
			<output>
				<port id="2" precision="FP32">
					<dim>1</dim>
					<dim>128</dim>
					<dim>80</dim>
					<dim>80</dim>
				</port>
			</output>
		</layer>
		<layer id="307" name="Reshape_556" type="Const" version="opset1">
			<data element_type="f32" shape="1, 128, 1, 1" offset="1912720" size="512" />
			<rt_info>
				<attribute name="fused_names" version="0" value="Reshape_556" />
			</rt_info>
			<output>
				<port id="0" precision="FP32">
					<dim>1</dim>
					<dim>128</dim>
					<dim>1</dim>
					<dim>1</dim>
				</port>
			</output>
		</layer>
		<layer id="308" name="/model.4/m.3/cv2/conv/Conv" type="Add" version="opset1">
			<data auto_broadcast="numpy" />
			<rt_info>
				<attribute name="fused_names" version="0" value="/model.4/m.3/cv2/conv/Conv" />
			</rt_info>
			<input>
				<port id="0" precision="FP32">
					<dim>1</dim>
					<dim>128</dim>
					<dim>80</dim>
					<dim>80</dim>
				</port>
				<port id="1" precision="FP32">
					<dim>1</dim>
					<dim>128</dim>
					<dim>1</dim>
					<dim>1</dim>
				</port>
			</input>
			<output>
				<port id="2" precision="FP32" names="/model.4/m.3/cv2/conv/Conv_output_0">
					<dim>1</dim>
					<dim>128</dim>
					<dim>80</dim>
					<dim>80</dim>
				</port>
			</output>
		</layer>
		<layer id="309" name="/model.4/m.3/cv2/act/Mul" type="Swish" version="opset4">
			<rt_info>
				<attribute name="fused_names" version="0" value="/model.4/m.3/cv2/act/Mul" />
			</rt_info>
			<input>
				<port id="0" precision="FP32">
					<dim>1</dim>
					<dim>128</dim>
					<dim>80</dim>
					<dim>80</dim>
				</port>
			</input>
			<output>
				<port id="1" precision="FP32" names="/model.4/m.3/cv2/act/Mul_output_0">
					<dim>1</dim>
					<dim>128</dim>
					<dim>80</dim>
					<dim>80</dim>
				</port>
			</output>
		</layer>
…
		<edge from-layer="1094" from-port="2" to-layer="1095" to-port="1" />
		<edge from-layer="1095" from-port="2" to-layer="1097" to-port="0" />
		<edge from-layer="1096" from-port="0" to-layer="1097" to-port="1" />
		<edge from-layer="1097" from-port="2" to-layer="1098" to-port="1" />
		<edge from-layer="1098" from-port="2" to-layer="1609" to-port="0" />
		<edge from-layer="1098" from-port="2" to-layer="1099" to-port="0" />
		<edge from-layer="1099" from-port="1" to-layer="1117" to-port="0" />
		<edge from-layer="1099" from-port="1" to-layer="1102" to-port="0" />
		<edge from-layer="1100" from-port="0" to-layer="1102" to-port="1" />
		<edge from-layer="1101" from-port="0" to-layer="1102" to-port="2" />
		<edge from-layer="1102" from-port="3" to-layer="1691" to-port="1" />
		<edge from-layer="1102" from-port="3" to-layer="1103" to-port="0" />
		<edge from-layer="1103" from-port="1" to-layer="1105" to-port="1" />
		<edge from-layer="1104" from-port="0" to-layer="1105" to-port="2" />
		<edge from-layer="1105" from-port="3" to-layer="1107" to-port="0" />
		<edge from-layer="1106" from-port="0" to-layer="1107" to-port="1" />
		<edge from-layer="1107" from-port="2" to-layer="1109" to-port="0" />
		<edge from-layer="1108" from-port="0" to-layer="1109" to-port="1" />
		<edge from-layer="1109" from-port="2" to-layer="1111" to-port="0" />
		<edge from-layer="1109" from-port="2" to-layer="1113" to-port="0" />
		<edge from-layer="1110" from-port="0" to-layer="1112" to-port="0" />
		<edge from-layer="1111" from-port="1" to-layer="1126" to-port="1" />
		<edge from-layer="1111" from-port="1" to-layer="1112" to-port="1" />
		<edge from-layer="1112" from-port="2" to-layer="1113" to-port="1" />
		<edge from-layer="1113" from-port="2" to-layer="1127" to-port="0" />
		<edge from-layer="1114" from-port="0" to-layer="1120" to-port="0" />
		<edge from-layer="1115" from-port="0" to-layer="1117" to-port="1" />
		<edge from-layer="1116" from-port="0" to-layer="1117" to-port="2" />
		<edge from-layer="1117" from-port="3" to-layer="1118" to-port="0" />
		<edge from-layer="1117" from-port="3" to-layer="1691" to-port="0" />
		<edge from-layer="1118" from-port="1" to-layer="1120" to-port="1" />
		<edge from-layer="1119" from-port="0" to-layer="1120" to-port="2" />
		<edge from-layer="1120" from-port="3" to-layer="1122" to-port="0" />
		<edge from-layer="1121" from-port="0" to-layer="1122" to-port="1" />
		<edge from-layer="1122" from-port="2" to-layer="1124" to-port="0" />
		<edge from-layer="1123" from-port="0" to-layer="1124" to-port="1" />
		<edge from-layer="1124" from-port="2" to-layer="1125" to-port="0" />
		<edge from-layer="1124" from-port="2" to-layer="1132" to-port="0" />
		<edge from-layer="1125" from-port="1" to-layer="1126" to-port="0" />
		<edge from-layer="1125" from-port="1" to-layer="1131" to-port="0" />
		<edge from-layer="1126" from-port="2" to-layer="1127" to-port="1" />
		<edge from-layer="1126" from-port="2" to-layer="1133" to-port="1" />
		<edge from-layer="1127" from-port="2" to-layer="1129" to-port="0" />
		<edge from-layer="1128" from-port="0" to-layer="1129" to-port="1" />
		<edge from-layer="1129" from-port="2" to-layer="1136" to-port="0" />
		<edge from-layer="1130" from-port="0" to-layer="1131" to-port="1" />
		<edge from-layer="1131" from-port="2" to-layer="1132" to-port="1" />
		<edge from-layer="1132" from-port="2" to-layer="1133" to-port="0" />
		<edge from-layer="1133" from-port="2" to-layer="1135" to-port="0" />
		<edge from-layer="1134" from-port="0" to-layer="1135" to-port="1" />
		<edge from-layer="1135" from-port="2" to-layer="1136" to-port="1" />
		<edge from-layer="1136" from-port="2" to-layer="1138" to-port="0" />
		<edge from-layer="1137" from-port="0" to-layer="1138" to-port="1" />
		<edge from-layer="1138" from-port="2" to-layer="1597" to-port="0" />
		<edge from-layer="1139" from-port="0" to-layer="1334" to-port="0" />
		<edge from-layer="1140" from-port="0" to-layer="1141" to-port="0" />
		<edge from-layer="1141" from-port="1" to-layer="1143" to-port="0" />
		<edge from-layer="1142" from-port="0" to-layer="1143" to-port="1" />
		<edge from-layer="1143" from-port="2" to-layer="1144" to-port="1" />
		<edge from-layer="1144" from-port="2" to-layer="1146" to-port="0" />
		<edge from-layer="1145" from-port="0" to-layer="1146" to-port="1" />
		<edge from-layer="1146" from-port="2" to-layer="1147" to-port="0" />
		<edge from-layer="1147" from-port="1" to-layer="1152" to-port="0" />
		<edge from-layer="1148" from-port="0" to-layer="1152" to-port="1" />
		<edge from-layer="1149" from-port="0" to-layer="1152" to-port="2" />
		<edge from-layer="1150" from-port="0" to-layer="1152" to-port="3" />
		<edge from-layer="1151" from-port="0" to-layer="1152" to-port="4" />
		<edge from-layer="1152" from-port="5" to-layer="1153" to-port="0" />
		<edge from-layer="1153" from-port="2" to-layer="1158" to-port="0" />
		<edge from-layer="1154" from-port="0" to-layer="1155" to-port="0" />
		<edge from-layer="1155" from-port="1" to-layer="1157" to-port="0" />
		<edge from-layer="1156" from-port="0" to-layer="1157" to-port="1" />
		<edge from-layer="1157" from-port="2" to-layer="1158" to-port="1" />
		<edge from-layer="1158" from-port="2" to-layer="1160" to-port="0" />
		<edge from-layer="1159" from-port="0" to-layer="1160" to-port="1" />
		<edge from-layer="1160" from-port="2" to-layer="1161" to-port="0" />
		<edge from-layer="1161" from-port="1" to-layer="1166" to-port="0" />
		<edge from-layer="1162" from-port="0" to-layer="1166" to-port="1" />
		<edge from-layer="1163" from-port="0" to-layer="1166" to-port="2" />
		<edge from-layer="1164" from-port="0" to-layer="1166" to-port="3" />
		<edge from-layer="1165" from-port="0" to-layer="1166" to-port="4" />
		<edge from-layer="1166" from-port="5" to-layer="1168" to-port="0" />
		<edge from-layer="1167" from-port="0" to-layer="1168" to-port="1" />
		<edge from-layer="1168" from-port="3" to-layer="1247" to-port="0" />
		<edge from-layer="1168" from-port="4" to-layer="1173" to-port="0" />
		<edge from-layer="1168" from-port="4" to-layer="1247" to-port="1" />
		<edge from-layer="1169" from-port="0" to-layer="1170" to-port="0" />
		<edge from-layer="1170" from-port="1" to-layer="1172" to-port="0" />
		<edge from-layer="1171" from-port="0" to-layer="1172" to-port="1" />
		<edge from-layer="1172" from-port="2" to-layer="1173" to-port="1" />
		<edge from-layer="1173" from-port="2" to-layer="1175" to-port="0" />
		<edge from-layer="1174" from-port="0" to-layer="1175" to-port="1" />
		<edge from-layer="1175" from-port="2" to-layer="1176" to-port="0" />
		<edge from-layer="1176" from-port="1" to-layer="1181" to-port="0" />
		<edge from-layer="1177" from-port="0" to-layer="1181" to-port="1" />
		<edge from-layer="1178" from-port="0" to-layer="1181" to-port="2" />
		<edge from-layer="1179" from-port="0" to-layer="1181" to-port="3" />
		<edge from-layer="1180" from-port="0" to-layer="1181" to-port="4" />
		<edge from-layer="1181" from-port="5" to-layer="1186" to-port="0" />
		<edge from-layer="1182" from-port="0" to-layer="1183" to-port="0" />
		<edge from-layer="1183" from-port="1" to-layer="1185" to-port="0" />
		<edge from-layer="1184" from-port="0" to-layer="1185" to-port="1" />
		<edge from-layer="1185" from-port="2" to-layer="1186" to-port="1" />
		<edge from-layer="1186" from-port="2" to-layer="1188" to-port="0" />
		<edge from-layer="1187" from-port="0" to-layer="1188" to-port="1" />
		<edge from-layer="1188" from-port="2" to-layer="1189" to-port="0" />
		<edge from-layer="1189" from-port="1" to-layer="1194" to-port="0" />
		<edge from-layer="1190" from-port="0" to-layer="1194" to-port="1" />
		<edge from-layer="1191" from-port="0" to-layer="1194" to-port="2" />
		<edge from-layer="1192" from-port="0" to-layer="1194" to-port="3" />
		<edge from-layer="1193" from-port="0" to-layer="1194" to-port="4" />
		<edge from-layer="1194" from-port="5" to-layer="1247" to-port="2" />
		<edge from-layer="1194" from-port="5" to-layer="1199" to-port="0" />
		<edge from-layer="1195" from-port="0" to-layer="1196" to-port="0" />
		<edge from-layer="1196" from-port="1" to-layer="1198" to-port="0" />
		<edge from-layer="1197" from-port="0" to-layer="1198" to-port="1" />
		<edge from-layer="1198" from-port="2" to-layer="1199" to-port="1" />
		<edge from-layer="1199" from-port="2" to-layer="1201" to-port="0" />
		<edge from-layer="1200" from-port="0" to-layer="1201" to-port="1" />
		<edge from-layer="1201" from-port="2" to-layer="1202" to-port="0" />
		<edge from-layer="1202" from-port="1" to-layer="1207" to-port="0" />
		<edge from-layer="1203" from-port="0" to-layer="1207" to-port="1" />
		<edge from-layer="1204" from-port="0" to-layer="1207" to-port="2" />
		<edge from-layer="1205" from-port="0" to-layer="1207" to-port="3" />
		<edge from-layer="1206" from-port="0" to-layer="1207" to-port="4" />
		<edge from-layer="1207" from-port="5" to-layer="1212" to-port="0" />
		<edge from-layer="1208" from-port="0" to-layer="1209" to-port="0" />
		<edge from-layer="1209" from-port="1" to-layer="1211" to-port="0" />
		<edge from-layer="1210" from-port="0" to-layer="1211" to-port="1" />
		<edge from-layer="1211" from-port="2" to-layer="1212" to-port="1" />
		<edge from-layer="1212" from-port="2" to-layer="1214" to-port="0" />
		<edge from-layer="1213" from-port="0" to-layer="1214" to-port="1" />
		<edge from-layer="1214" from-port="2" to-layer="1215" to-port="0" />
		<edge from-layer="1215" from-port="1" to-layer="1220" to-port="0" />
		<edge from-layer="1216" from-port="0" to-layer="1220" to-port="1" />
		<edge from-layer="1217" from-port="0" to-layer="1220" to-port="2" />
		<edge from-layer="1218" from-port="0" to-layer="1220" to-port="3" />
		<edge from-layer="1219" from-port="0" to-layer="1220" to-port="4" />
		<edge from-layer="1220" from-port="5" to-layer="1225" to-port="0" />
		<edge from-layer="1220" from-port="5" to-layer="1247" to-port="3" />
		<edge from-layer="1221" from-port="0" to-layer="1222" to-port="0" />
		<edge from-layer="1222" from-port="1" to-layer="1224" to-port="0" />
		<edge from-layer="1223" from-port="0" to-layer="1224" to-port="1" />
		<edge from-layer="1224" from-port="2" to-layer="1225" to-port="1" />
		<edge from-layer="1225" from-port="2" to-layer="1227" to-port="0" />
		<edge from-layer="1226" from-port="0" to-layer="1227" to-port="1" />
		<edge from-layer="1227" from-port="2" to-layer="1228" to-port="0" />
		<edge from-layer="1228" from-port="1" to-layer="1233" to-port="0" />
		<edge from-layer="1229" from-port="0" to-layer="1233" to-port="1" />
		<edge from-layer="1230" from-port="0" to-layer="1233" to-port="2" />
		<edge from-layer="1231" from-port="0" to-layer="1233" to-port="3" />
		<edge from-layer="1232" from-port="0" to-layer="1233" to-port="4" />
		<edge from-layer="1233" from-port="5" to-layer="1238" to-port="0" />
		<edge from-layer="1234" from-port="0" to-layer="1235" to-port="0" />
		<edge from-layer="1235" from-port="1" to-layer="1237" to-port="0" />
		<edge from-layer="1236" from-port="0" to-layer="1237" to-port="1" />
		<edge from-layer="1237" from-port="2" to-layer="1238" to-port="1" />
		<edge from-layer="1238" from-port="2" to-layer="1240" to-port="0" />
		<edge from-layer="1239" from-port="0" to-layer="1240" to-port="1" />
		<edge from-layer="1240" from-port="2" to-layer="1241" to-port="0" />
		<edge from-layer="1241" from-port="1" to-layer="1246" to-port="0" />
		<edge from-layer="1242" from-port="0" to-layer="1246" to-port="1" />
		<edge from-layer="1243" from-port="0" to-layer="1246" to-port="2" />
		<edge from-layer="1244" from-port="0" to-layer="1246" to-port="3" />
		<edge from-layer="1245" from-port="0" to-layer="1246" to-port="4" />
		<edge from-layer="1246" from-port="5" to-layer="1247" to-port="4" />
		<edge from-layer="1247" from-port="5" to-layer="1252" to-port="0" />
		<edge from-layer="1248" from-port="0" to-layer="1249" to-port="0" />
		<edge from-layer="1249" from-port="1" to-layer="1251" to-port="0" />
		<edge from-layer="1250" from-port="0" to-layer="1251" to-port="1" />
		<edge from-layer="1251" from-port="2" to-layer="1252" to-port="1" />
		<edge from-layer="1252" from-port="2" to-layer="1254" to-port="0" />
		<edge from-layer="1253" from-port="0" to-layer="1254" to-port="1" />
		<edge from-layer="1254" from-port="2" to-layer="1255" to-port="0" />
		<edge from-layer="1255" from-port="1" to-layer="1260" to-port="0" />
		<edge from-layer="1256" from-port="0" to-layer="1260" to-port="1" />
		<edge from-layer="1257" from-port="0" to-layer="1260" to-port="2" />
		<edge from-layer="1258" from-port="0" to-layer="1260" to-port="3" />
		<edge from-layer="1259" from-port="0" to-layer="1260" to-port="4" />
		<edge from-layer="1260" from-port="5" to-layer="1298" to-port="0" />
		<edge from-layer="1260" from-port="5" to-layer="1265" to-port="0" />
		<edge from-layer="1260" from-port="5" to-layer="1373" to-port="0" />
		<edge from-layer="1261" from-port="0" to-layer="1262" to-port="0" />
		<edge from-layer="1262" from-port="1" to-layer="1264" to-port="0" />
		<edge from-layer="1263" from-port="0" to-layer="1264" to-port="1" />
		<edge from-layer="1264" from-port="2" to-layer="1265" to-port="1" />
		<edge from-layer="1265" from-port="2" to-layer="1267" to-port="0" />
		<edge from-layer="1266" from-port="0" to-layer="1267" to-port="1" />
		<edge from-layer="1267" from-port="2" to-layer="1268" to-port="0" />
		<edge from-layer="1268" from-port="1" to-layer="1273" to-port="0" />
		<edge from-layer="1269" from-port="0" to-layer="1273" to-port="1" />
		<edge from-layer="1270" from-port="0" to-layer="1273" to-port="2" />
		<edge from-layer="1271" from-port="0" to-layer="1273" to-port="3" />
		<edge from-layer="1272" from-port="0" to-layer="1273" to-port="4" />
		<edge from-layer="1273" from-port="5" to-layer="1278" to-port="0" />
		<edge from-layer="1274" from-port="0" to-layer="1275" to-port="0" />
		<edge from-layer="1275" from-port="1" to-layer="1277" to-port="0" />
		<edge from-layer="1276" from-port="0" to-layer="1277" to-port="1" />
		<edge from-layer="1277" from-port="2" to-layer="1278" to-port="1" />
		<edge from-layer="1278" from-port="2" to-layer="1280" to-port="0" />
		<edge from-layer="1279" from-port="0" to-layer="1280" to-port="1" />
		<edge from-layer="1280" from-port="2" to-layer="1281" to-port="0" />
		<edge from-layer="1281" from-port="1" to-layer="1286" to-port="0" />
		<edge from-layer="1282" from-port="0" to-layer="1286" to-port="1" />
		<edge from-layer="1283" from-port="0" to-layer="1286" to-port="2" />
		<edge from-layer="1284" from-port="0" to-layer="1286" to-port="3" />
		<edge from-layer="1285" from-port="0" to-layer="1286" to-port="4" />
		<edge from-layer="1286" from-port="5" to-layer="1291" to-port="0" />
		<edge from-layer="1287" from-port="0" to-layer="1288" to-port="0" />
		<edge from-layer="1288" from-port="1" to-layer="1290" to-port="0" />
		<edge from-layer="1289" from-port="0" to-layer="1290" to-port="1" />
		<edge from-layer="1290" from-port="2" to-layer="1291" to-port="1" />
		<edge from-layer="1291" from-port="2" to-layer="1293" to-port="0" />
		<edge from-layer="1292" from-port="0" to-layer="1293" to-port="1" />
		<edge from-layer="1293" from-port="2" to-layer="1327" to-port="0" />
		<edge from-layer="1294" from-port="0" to-layer="1295" to-port="0" />
		<edge from-layer="1295" from-port="1" to-layer="1297" to-port="0" />
		<edge from-layer="1296" from-port="0" to-layer="1297" to-port="1" />
		<edge from-layer="1297" from-port="2" to-layer="1298" to-port="1" />
		<edge from-layer="1298" from-port="2" to-layer="1300" to-port="0" />
		<edge from-layer="1299" from-port="0" to-layer="1300" to-port="1" />
		<edge from-layer="1300" from-port="2" to-layer="1301" to-port="0" />
		<edge from-layer="1301" from-port="1" to-layer="1306" to-port="0" />
		<edge from-layer="1302" from-port="0" to-layer="1306" to-port="1" />
		<edge from-layer="1303" from-port="0" to-layer="1306" to-port="2" />
		<edge from-layer="1304" from-port="0" to-layer="1306" to-port="3" />
		<edge from-layer="1305" from-port="0" to-layer="1306" to-port="4" />
		<edge from-layer="1306" from-port="5" to-layer="1311" to-port="0" />
		<edge from-layer="1307" from-port="0" to-layer="1308" to-port="0" />
		<edge from-layer="1308" from-port="1" to-layer="1310" to-port="0" />
		<edge from-layer="1309" from-port="0" to-layer="1310" to-port="1" />
		<edge from-layer="1310" from-port="2" to-layer="1311" to-port="1" />
		<edge from-layer="1311" from-port="2" to-layer="1313" to-port="0" />
		<edge from-layer="1312" from-port="0" to-layer="1313" to-port="1" />
		<edge from-layer="1313" from-port="2" to-layer="1314" to-port="0" />
		<edge from-layer="1314" from-port="1" to-layer="1319" to-port="0" />
		<edge from-layer="1315" from-port="0" to-layer="1319" to-port="1" />
		<edge from-layer="1316" from-port="0" to-layer="1319" to-port="2" />
		<edge from-layer="1317" from-port="0" to-layer="1319" to-port="3" />
		<edge from-layer="1318" from-port="0" to-layer="1319" to-port="4" />
		<edge from-layer="1319" from-port="5" to-layer="1324" to-port="0" />
		<edge from-layer="1320" from-port="0" to-layer="1321" to-port="0" />
		<edge from-layer="1321" from-port="1" to-layer="1323" to-port="0" />
		<edge from-layer="1322" from-port="0" to-layer="1323" to-port="1" />
		<edge from-layer="1323" from-port="2" to-layer="1324" to-port="1" />
		<edge from-layer="1324" from-port="2" to-layer="1326" to-port="0" />
		<edge from-layer="1325" from-port="0" to-layer="1326" to-port="1" />
		<edge from-layer="1326" from-port="2" to-layer="1327" to-port="1" />
		<edge from-layer="1327" from-port="2" to-layer="1615" to-port="0" />
		<edge from-layer="1327" from-port="2" to-layer="1328" to-port="0" />
		<edge from-layer="1328" from-port="1" to-layer="1331" to-port="0" />
		<edge from-layer="1328" from-port="1" to-layer="1346" to-port="0" />
		<edge from-layer="1329" from-port="0" to-layer="1331" to-port="1" />
		<edge from-layer="1330" from-port="0" to-layer="1331" to-port="2" />
		<edge from-layer="1331" from-port="3" to-layer="1332" to-port="0" />
		<edge from-layer="1331" from-port="3" to-layer="1700" to-port="1" />
		<edge from-layer="1332" from-port="1" to-layer="1334" to-port="1" />
		<edge from-layer="1333" from-port="0" to-layer="1334" to-port="2" />
		<edge from-layer="1334" from-port="3" to-layer="1336" to-port="0" />
		<edge from-layer="1335" from-port="0" to-layer="1336" to-port="1" />
		<edge from-layer="1336" from-port="2" to-layer="1338" to-port="0" />
		<edge from-layer="1337" from-port="0" to-layer="1338" to-port="1" />
		<edge from-layer="1338" from-port="2" to-layer="1342" to-port="0" />
		<edge from-layer="1338" from-port="2" to-layer="1340" to-port="0" />
		<edge from-layer="1339" from-port="0" to-layer="1341" to-port="0" />
		<edge from-layer="1340" from-port="1" to-layer="1341" to-port="1" />
		<edge from-layer="1340" from-port="1" to-layer="1355" to-port="1" />
		<edge from-layer="1341" from-port="2" to-layer="1342" to-port="1" />
		<edge from-layer="1342" from-port="2" to-layer="1356" to-port="0" />
		<edge from-layer="1343" from-port="0" to-layer="1349" to-port="0" />
		<edge from-layer="1344" from-port="0" to-layer="1346" to-port="1" />
		<edge from-layer="1345" from-port="0" to-layer="1346" to-port="2" />
		<edge from-layer="1346" from-port="3" to-layer="1347" to-port="0" />
		<edge from-layer="1346" from-port="3" to-layer="1700" to-port="0" />
		<edge from-layer="1347" from-port="1" to-layer="1349" to-port="1" />
		<edge from-layer="1348" from-port="0" to-layer="1349" to-port="2" />
		<edge from-layer="1349" from-port="3" to-layer="1351" to-port="0" />
		<edge from-layer="1350" from-port="0" to-layer="1351" to-port="1" />
		<edge from-layer="1351" from-port="2" to-layer="1353" to-port="0" />
		<edge from-layer="1352" from-port="0" to-layer="1353" to-port="1" />
		<edge from-layer="1353" from-port="2" to-layer="1354" to-port="0" />
		<edge from-layer="1353" from-port="2" to-layer="1361" to-port="0" />
		<edge from-layer="1354" from-port="1" to-layer="1355" to-port="0" />
		<edge from-layer="1354" from-port="1" to-layer="1360" to-port="0" />
		<edge from-layer="1355" from-port="2" to-layer="1356" to-port="1" />
		<edge from-layer="1355" from-port="2" to-layer="1362" to-port="1" />
		<edge from-layer="1356" from-port="2" to-layer="1358" to-port="0" />
		<edge from-layer="1357" from-port="0" to-layer="1358" to-port="1" />
		<edge from-layer="1358" from-port="2" to-layer="1365" to-port="0" />
		<edge from-layer="1359" from-port="0" to-layer="1360" to-port="1" />
		<edge from-layer="1360" from-port="2" to-layer="1361" to-port="1" />
		<edge from-layer="1361" from-port="2" to-layer="1362" to-port="0" />
		<edge from-layer="1362" from-port="2" to-layer="1364" to-port="0" />
		<edge from-layer="1363" from-port="0" to-layer="1364" to-port="1" />
		<edge from-layer="1364" from-port="2" to-layer="1365" to-port="1" />
		<edge from-layer="1365" from-port="2" to-layer="1367" to-port="0" />
		<edge from-layer="1366" from-port="0" to-layer="1367" to-port="1" />
		<edge from-layer="1367" from-port="2" to-layer="1597" to-port="1" />
		<edge from-layer="1368" from-port="0" to-layer="1563" to-port="0" />
		<edge from-layer="1369" from-port="0" to-layer="1370" to-port="0" />
		<edge from-layer="1370" from-port="1" to-layer="1372" to-port="0" />
		<edge from-layer="1371" from-port="0" to-layer="1372" to-port="1" />
		<edge from-layer="1372" from-port="2" to-layer="1373" to-port="1" />
		<edge from-layer="1373" from-port="2" to-layer="1375" to-port="0" />
		<edge from-layer="1374" from-port="0" to-layer="1375" to-port="1" />
		<edge from-layer="1375" from-port="2" to-layer="1376" to-port="0" />
		<edge from-layer="1376" from-port="1" to-layer="1381" to-port="0" />
		<edge from-layer="1377" from-port="0" to-layer="1381" to-port="1" />
		<edge from-layer="1378" from-port="0" to-layer="1381" to-port="2" />
		<edge from-layer="1379" from-port="0" to-layer="1381" to-port="3" />
		<edge from-layer="1380" from-port="0" to-layer="1381" to-port="4" />
		<edge from-layer="1381" from-port="5" to-layer="1382" to-port="0" />
		<edge from-layer="1382" from-port="2" to-layer="1387" to-port="0" />
		<edge from-layer="1383" from-port="0" to-layer="1384" to-port="0" />
		<edge from-layer="1384" from-port="1" to-layer="1386" to-port="0" />
		<edge from-layer="1385" from-port="0" to-layer="1386" to-port="1" />
		<edge from-layer="1386" from-port="2" to-layer="1387" to-port="1" />
		<edge from-layer="1387" from-port="2" to-layer="1389" to-port="0" />
		<edge from-layer="1388" from-port="0" to-layer="1389" to-port="1" />
		<edge from-layer="1389" from-port="2" to-layer="1390" to-port="0" />
		<edge from-layer="1390" from-port="1" to-layer="1395" to-port="0" />
		<edge from-layer="1391" from-port="0" to-layer="1395" to-port="1" />
		<edge from-layer="1392" from-port="0" to-layer="1395" to-port="2" />
		<edge from-layer="1393" from-port="0" to-layer="1395" to-port="3" />
		<edge from-layer="1394" from-port="0" to-layer="1395" to-port="4" />
		<edge from-layer="1395" from-port="5" to-layer="1397" to-port="0" />
		<edge from-layer="1396" from-port="0" to-layer="1397" to-port="1" />
		<edge from-layer="1397" from-port="4" to-layer="1402" to-port="0" />
		<edge from-layer="1397" from-port="3" to-layer="1476" to-port="0" />
		<edge from-layer="1397" from-port="4" to-layer="1476" to-port="1" />
		<edge from-layer="1398" from-port="0" to-layer="1399" to-port="0" />
		<edge from-layer="1399" from-port="1" to-layer="1401" to-port="0" />
		<edge from-layer="1400" from-port="0" to-layer="1401" to-port="1" />
		<edge from-layer="1401" from-port="2" to-layer="1402" to-port="1" />
		<edge from-layer="1402" from-port="2" to-layer="1404" to-port="0" />
		<edge from-layer="1403" from-port="0" to-layer="1404" to-port="1" />
		<edge from-layer="1404" from-port="2" to-layer="1405" to-port="0" />
		<edge from-layer="1405" from-port="1" to-layer="1410" to-port="0" />
		<edge from-layer="1406" from-port="0" to-layer="1410" to-port="1" />
		<edge from-layer="1407" from-port="0" to-layer="1410" to-port="2" />
		<edge from-layer="1408" from-port="0" to-layer="1410" to-port="3" />
		<edge from-layer="1409" from-port="0" to-layer="1410" to-port="4" />
		<edge from-layer="1410" from-port="5" to-layer="1415" to-port="0" />
		<edge from-layer="1411" from-port="0" to-layer="1412" to-port="0" />
		<edge from-layer="1412" from-port="1" to-layer="1414" to-port="0" />
		<edge from-layer="1413" from-port="0" to-layer="1414" to-port="1" />
		<edge from-layer="1414" from-port="2" to-layer="1415" to-port="1" />
		<edge from-layer="1415" from-port="2" to-layer="1417" to-port="0" />
		<edge from-layer="1416" from-port="0" to-layer="1417" to-port="1" />
		<edge from-layer="1417" from-port="2" to-layer="1418" to-port="0" />
		<edge from-layer="1418" from-port="1" to-layer="1423" to-port="0" />
		<edge from-layer="1419" from-port="0" to-layer="1423" to-port="1" />
		<edge from-layer="1420" from-port="0" to-layer="1423" to-port="2" />
		<edge from-layer="1421" from-port="0" to-layer="1423" to-port="3" />
		<edge from-layer="1422" from-port="0" to-layer="1423" to-port="4" />
		<edge from-layer="1423" from-port="5" to-layer="1428" to-port="0" />
		<edge from-layer="1423" from-port="5" to-layer="1476" to-port="2" />
		<edge from-layer="1424" from-port="0" to-layer="1425" to-port="0" />
		<edge from-layer="1425" from-port="1" to-layer="1427" to-port="0" />
		<edge from-layer="1426" from-port="0" to-layer="1427" to-port="1" />
		<edge from-layer="1427" from-port="2" to-layer="1428" to-port="1" />
		<edge from-layer="1428" from-port="2" to-layer="1430" to-port="0" />
		<edge from-layer="1429" from-port="0" to-layer="1430" to-port="1" />
		<edge from-layer="1430" from-port="2" to-layer="1431" to-port="0" />
		<edge from-layer="1431" from-port="1" to-layer="1436" to-port="0" />
		<edge from-layer="1432" from-port="0" to-layer="1436" to-port="1" />
		<edge from-layer="1433" from-port="0" to-layer="1436" to-port="2" />
		<edge from-layer="1434" from-port="0" to-layer="1436" to-port="3" />
		<edge from-layer="1435" from-port="0" to-layer="1436" to-port="4" />
		<edge from-layer="1436" from-port="5" to-layer="1441" to-port="0" />
		<edge from-layer="1437" from-port="0" to-layer="1438" to-port="0" />
		<edge from-layer="1438" from-port="1" to-layer="1440" to-port="0" />
		<edge from-layer="1439" from-port="0" to-layer="1440" to-port="1" />
		<edge from-layer="1440" from-port="2" to-layer="1441" to-port="1" />
		<edge from-layer="1441" from-port="2" to-layer="1443" to-port="0" />
		<edge from-layer="1442" from-port="0" to-layer="1443" to-port="1" />
		<edge from-layer="1443" from-port="2" to-layer="1444" to-port="0" />
		<edge from-layer="1444" from-port="1" to-layer="1449" to-port="0" />
		<edge from-layer="1445" from-port="0" to-layer="1449" to-port="1" />
		<edge from-layer="1446" from-port="0" to-layer="1449" to-port="2" />
		<edge from-layer="1447" from-port="0" to-layer="1449" to-port="3" />
		<edge from-layer="1448" from-port="0" to-layer="1449" to-port="4" />
		<edge from-layer="1449" from-port="5" to-layer="1454" to-port="0" />
		<edge from-layer="1449" from-port="5" to-layer="1476" to-port="3" />
		<edge from-layer="1450" from-port="0" to-layer="1451" to-port="0" />
		<edge from-layer="1451" from-port="1" to-layer="1453" to-port="0" />
		<edge from-layer="1452" from-port="0" to-layer="1453" to-port="1" />
		<edge from-layer="1453" from-port="2" to-layer="1454" to-port="1" />
		<edge from-layer="1454" from-port="2" to-layer="1456" to-port="0" />
		<edge from-layer="1455" from-port="0" to-layer="1456" to-port="1" />
		<edge from-layer="1456" from-port="2" to-layer="1457" to-port="0" />
		<edge from-layer="1457" from-port="1" to-layer="1462" to-port="0" />
		<edge from-layer="1458" from-port="0" to-layer="1462" to-port="1" />
		<edge from-layer="1459" from-port="0" to-layer="1462" to-port="2" />
		<edge from-layer="1460" from-port="0" to-layer="1462" to-port="3" />
		<edge from-layer="1461" from-port="0" to-layer="1462" to-port="4" />
		<edge from-layer="1462" from-port="5" to-layer="1467" to-port="0" />
		<edge from-layer="1463" from-port="0" to-layer="1464" to-port="0" />
		<edge from-layer="1464" from-port="1" to-layer="1466" to-port="0" />
		<edge from-layer="1465" from-port="0" to-layer="1466" to-port="1" />
		<edge from-layer="1466" from-port="2" to-layer="1467" to-port="1" />
		<edge from-layer="1467" from-port="2" to-layer="1469" to-port="0" />
		<edge from-layer="1468" from-port="0" to-layer="1469" to-port="1" />
		<edge from-layer="1469" from-port="2" to-layer="1470" to-port="0" />
		<edge from-layer="1470" from-port="1" to-layer="1475" to-port="0" />
		<edge from-layer="1471" from-port="0" to-layer="1475" to-port="1" />
		<edge from-layer="1472" from-port="0" to-layer="1475" to-port="2" />
		<edge from-layer="1473" from-port="0" to-layer="1475" to-port="3" />
		<edge from-layer="1474" from-port="0" to-layer="1475" to-port="4" />
		<edge from-layer="1475" from-port="5" to-layer="1476" to-port="4" />
		<edge from-layer="1476" from-port="5" to-layer="1481" to-port="0" />
		<edge from-layer="1477" from-port="0" to-layer="1478" to-port="0" />
		<edge from-layer="1478" from-port="1" to-layer="1480" to-port="0" />
		<edge from-layer="1479" from-port="0" to-layer="1480" to-port="1" />
		<edge from-layer="1480" from-port="2" to-layer="1481" to-port="1" />
		<edge from-layer="1481" from-port="2" to-layer="1483" to-port="0" />
		<edge from-layer="1482" from-port="0" to-layer="1483" to-port="1" />
		<edge from-layer="1483" from-port="2" to-layer="1484" to-port="0" />
		<edge from-layer="1484" from-port="1" to-layer="1489" to-port="0" />
		<edge from-layer="1485" from-port="0" to-layer="1489" to-port="1" />
		<edge from-layer="1486" from-port="0" to-layer="1489" to-port="2" />
		<edge from-layer="1487" from-port="0" to-layer="1489" to-port="3" />
		<edge from-layer="1488" from-port="0" to-layer="1489" to-port="4" />
		<edge from-layer="1489" from-port="5" to-layer="1494" to-port="0" />
		<edge from-layer="1489" from-port="5" to-layer="1527" to-port="0" />
		<edge from-layer="1490" from-port="0" to-layer="1491" to-port="0" />
		<edge from-layer="1491" from-port="1" to-layer="1493" to-port="0" />
		<edge from-layer="1492" from-port="0" to-layer="1493" to-port="1" />
		<edge from-layer="1493" from-port="2" to-layer="1494" to-port="1" />
		<edge from-layer="1494" from-port="2" to-layer="1496" to-port="0" />
		<edge from-layer="1495" from-port="0" to-layer="1496" to-port="1" />
		<edge from-layer="1496" from-port="2" to-layer="1497" to-port="0" />
		<edge from-layer="1497" from-port="1" to-layer="1502" to-port="0" />
		<edge from-layer="1498" from-port="0" to-layer="1502" to-port="1" />
		<edge from-layer="1499" from-port="0" to-layer="1502" to-port="2" />
		<edge from-layer="1500" from-port="0" to-layer="1502" to-port="3" />
		<edge from-layer="1501" from-port="0" to-layer="1502" to-port="4" />
		<edge from-layer="1502" from-port="5" to-layer="1507" to-port="0" />
		<edge from-layer="1503" from-port="0" to-layer="1504" to-port="0" />
		<edge from-layer="1504" from-port="1" to-layer="1506" to-port="0" />
		<edge from-layer="1505" from-port="0" to-layer="1506" to-port="1" />
		<edge from-layer="1506" from-port="2" to-layer="1507" to-port="1" />
		<edge from-layer="1507" from-port="2" to-layer="1509" to-port="0" />
		<edge from-layer="1508" from-port="0" to-layer="1509" to-port="1" />
		<edge from-layer="1509" from-port="2" to-layer="1510" to-port="0" />
		<edge from-layer="1510" from-port="1" to-layer="1515" to-port="0" />
		<edge from-layer="1511" from-port="0" to-layer="1515" to-port="1" />
		<edge from-layer="1512" from-port="0" to-layer="1515" to-port="2" />
		<edge from-layer="1513" from-port="0" to-layer="1515" to-port="3" />
		<edge from-layer="1514" from-port="0" to-layer="1515" to-port="4" />
		<edge from-layer="1515" from-port="5" to-layer="1520" to-port="0" />
		<edge from-layer="1516" from-port="0" to-layer="1517" to-port="0" />
		<edge from-layer="1517" from-port="1" to-layer="1519" to-port="0" />
		<edge from-layer="1518" from-port="0" to-layer="1519" to-port="1" />
		<edge from-layer="1519" from-port="2" to-layer="1520" to-port="1" />
		<edge from-layer="1520" from-port="2" to-layer="1522" to-port="0" />
		<edge from-layer="1521" from-port="0" to-layer="1522" to-port="1" />
		<edge from-layer="1522" from-port="2" to-layer="1556" to-port="0" />
		<edge from-layer="1523" from-port="0" to-layer="1524" to-port="0" />
		<edge from-layer="1524" from-port="1" to-layer="1526" to-port="0" />
		<edge from-layer="1525" from-port="0" to-layer="1526" to-port="1" />
		<edge from-layer="1526" from-port="2" to-layer="1527" to-port="1" />
		<edge from-layer="1527" from-port="2" to-layer="1529" to-port="0" />
		<edge from-layer="1528" from-port="0" to-layer="1529" to-port="1" />
		<edge from-layer="1529" from-port="2" to-layer="1530" to-port="0" />
		<edge from-layer="1530" from-port="1" to-layer="1535" to-port="0" />
		<edge from-layer="1531" from-port="0" to-layer="1535" to-port="1" />
		<edge from-layer="1532" from-port="0" to-layer="1535" to-port="2" />
		<edge from-layer="1533" from-port="0" to-layer="1535" to-port="3" />
		<edge from-layer="1534" from-port="0" to-layer="1535" to-port="4" />
		<edge from-layer="1535" from-port="5" to-layer="1540" to-port="0" />
		<edge from-layer="1536" from-port="0" to-layer="1537" to-port="0" />
		<edge from-layer="1537" from-port="1" to-layer="1539" to-port="0" />
		<edge from-layer="1538" from-port="0" to-layer="1539" to-port="1" />
		<edge from-layer="1539" from-port="2" to-layer="1540" to-port="1" />
		<edge from-layer="1540" from-port="2" to-layer="1542" to-port="0" />
		<edge from-layer="1541" from-port="0" to-layer="1542" to-port="1" />
		<edge from-layer="1542" from-port="2" to-layer="1543" to-port="0" />
		<edge from-layer="1543" from-port="1" to-layer="1548" to-port="0" />
		<edge from-layer="1544" from-port="0" to-layer="1548" to-port="1" />
		<edge from-layer="1545" from-port="0" to-layer="1548" to-port="2" />
		<edge from-layer="1546" from-port="0" to-layer="1548" to-port="3" />
		<edge from-layer="1547" from-port="0" to-layer="1548" to-port="4" />
		<edge from-layer="1548" from-port="5" to-layer="1553" to-port="0" />
		<edge from-layer="1549" from-port="0" to-layer="1550" to-port="0" />
		<edge from-layer="1550" from-port="1" to-layer="1552" to-port="0" />
		<edge from-layer="1551" from-port="0" to-layer="1552" to-port="1" />
		<edge from-layer="1552" from-port="2" to-layer="1553" to-port="1" />
		<edge from-layer="1553" from-port="2" to-layer="1555" to-port="0" />
		<edge from-layer="1554" from-port="0" to-layer="1555" to-port="1" />
		<edge from-layer="1555" from-port="2" to-layer="1556" to-port="1" />
		<edge from-layer="1556" from-port="2" to-layer="1557" to-port="0" />
		<edge from-layer="1556" from-port="2" to-layer="1621" to-port="0" />
		<edge from-layer="1557" from-port="1" to-layer="1560" to-port="0" />
		<edge from-layer="1557" from-port="1" to-layer="1575" to-port="0" />
		<edge from-layer="1558" from-port="0" to-layer="1560" to-port="1" />
		<edge from-layer="1559" from-port="0" to-layer="1560" to-port="2" />
		<edge from-layer="1560" from-port="3" to-layer="1561" to-port="0" />
		<edge from-layer="1560" from-port="3" to-layer="1709" to-port="1" />
		<edge from-layer="1561" from-port="1" to-layer="1563" to-port="1" />
		<edge from-layer="1562" from-port="0" to-layer="1563" to-port="2" />
		<edge from-layer="1563" from-port="3" to-layer="1565" to-port="0" />
		<edge from-layer="1564" from-port="0" to-layer="1565" to-port="1" />
		<edge from-layer="1565" from-port="2" to-layer="1567" to-port="0" />
		<edge from-layer="1566" from-port="0" to-layer="1567" to-port="1" />
		<edge from-layer="1567" from-port="2" to-layer="1569" to-port="0" />
		<edge from-layer="1567" from-port="2" to-layer="1571" to-port="0" />
		<edge from-layer="1568" from-port="0" to-layer="1570" to-port="0" />
		<edge from-layer="1569" from-port="1" to-layer="1570" to-port="1" />
		<edge from-layer="1569" from-port="1" to-layer="1584" to-port="1" />
		<edge from-layer="1570" from-port="2" to-layer="1571" to-port="1" />
		<edge from-layer="1571" from-port="2" to-layer="1585" to-port="0" />
		<edge from-layer="1572" from-port="0" to-layer="1578" to-port="0" />
		<edge from-layer="1573" from-port="0" to-layer="1575" to-port="1" />
		<edge from-layer="1574" from-port="0" to-layer="1575" to-port="2" />
		<edge from-layer="1575" from-port="3" to-layer="1576" to-port="0" />
		<edge from-layer="1575" from-port="3" to-layer="1709" to-port="0" />
		<edge from-layer="1576" from-port="1" to-layer="1578" to-port="1" />
		<edge from-layer="1577" from-port="0" to-layer="1578" to-port="2" />
		<edge from-layer="1578" from-port="3" to-layer="1580" to-port="0" />
		<edge from-layer="1579" from-port="0" to-layer="1580" to-port="1" />
		<edge from-layer="1580" from-port="2" to-layer="1582" to-port="0" />
		<edge from-layer="1581" from-port="0" to-layer="1582" to-port="1" />
		<edge from-layer="1582" from-port="2" to-layer="1583" to-port="0" />
		<edge from-layer="1582" from-port="2" to-layer="1590" to-port="0" />
		<edge from-layer="1583" from-port="1" to-layer="1589" to-port="0" />
		<edge from-layer="1583" from-port="1" to-layer="1584" to-port="0" />
		<edge from-layer="1584" from-port="2" to-layer="1585" to-port="1" />
		<edge from-layer="1584" from-port="2" to-layer="1591" to-port="1" />
		<edge from-layer="1585" from-port="2" to-layer="1587" to-port="0" />
		<edge from-layer="1586" from-port="0" to-layer="1587" to-port="1" />
		<edge from-layer="1587" from-port="2" to-layer="1594" to-port="0" />
		<edge from-layer="1588" from-port="0" to-layer="1589" to-port="1" />
		<edge from-layer="1589" from-port="2" to-layer="1590" to-port="1" />
		<edge from-layer="1590" from-port="2" to-layer="1591" to-port="0" />
		<edge from-layer="1591" from-port="2" to-layer="1593" to-port="0" />
		<edge from-layer="1592" from-port="0" to-layer="1593" to-port="1" />
		<edge from-layer="1593" from-port="2" to-layer="1594" to-port="1" />
		<edge from-layer="1594" from-port="2" to-layer="1596" to-port="0" />
		<edge from-layer="1595" from-port="0" to-layer="1596" to-port="1" />
		<edge from-layer="1596" from-port="2" to-layer="1597" to-port="2" />
		<edge from-layer="1597" from-port="3" to-layer="1599" to-port="0" />
		<edge from-layer="1598" from-port="0" to-layer="1599" to-port="1" />
		<edge from-layer="1599" from-port="2" to-layer="1601" to-port="0" />
		<edge from-layer="1600" from-port="0" to-layer="1601" to-port="1" />
		<edge from-layer="1601" from-port="2" to-layer="1679" to-port="0" />
		<edge from-layer="1601" from-port="2" to-layer="1663" to-port="0" />
		<edge from-layer="1602" from-port="1" to-layer="1611" to-port="0" />
		<edge from-layer="1602" from-port="1" to-layer="1605" to-port="0" />
		<edge from-layer="1602" from-port="1" to-layer="1617" to-port="0" />
		<edge from-layer="1603" from-port="0" to-layer="1605" to-port="1" />
		<edge from-layer="1604" from-port="0" to-layer="1611" to-port="2" />
		<edge from-layer="1604" from-port="0" to-layer="1617" to-port="2" />
		<edge from-layer="1604" from-port="0" to-layer="1605" to-port="2" />
		<edge from-layer="1605" from-port="3" to-layer="1608" to-port="0" />
		<edge from-layer="1606" from-port="0" to-layer="1608" to-port="1" />
		<edge from-layer="1607" from-port="0" to-layer="1608" to-port="2" />
		<edge from-layer="1608" from-port="3" to-layer="1609" to-port="1" />
		<edge from-layer="1609" from-port="2" to-layer="1622" to-port="0" />
		<edge from-layer="1610" from-port="0" to-layer="1611" to-port="1" />
		<edge from-layer="1611" from-port="3" to-layer="1614" to-port="0" />
		<edge from-layer="1612" from-port="0" to-layer="1614" to-port="1" />
		<edge from-layer="1613" from-port="0" to-layer="1614" to-port="2" />
		<edge from-layer="1614" from-port="3" to-layer="1615" to-port="1" />
		<edge from-layer="1615" from-port="2" to-layer="1622" to-port="1" />
		<edge from-layer="1616" from-port="0" to-layer="1617" to-port="1" />
		<edge from-layer="1617" from-port="3" to-layer="1620" to-port="0" />
		<edge from-layer="1618" from-port="0" to-layer="1620" to-port="1" />
		<edge from-layer="1619" from-port="0" to-layer="1620" to-port="2" />
		<edge from-layer="1620" from-port="3" to-layer="1621" to-port="1" />
		<edge from-layer="1621" from-port="2" to-layer="1622" to-port="2" />
		<edge from-layer="1622" from-port="3" to-layer="1625" to-port="0" />
		<edge from-layer="1623" from-port="0" to-layer="1625" to-port="1" />
		<edge from-layer="1624" from-port="0" to-layer="1625" to-port="2" />
		<edge from-layer="1625" from-port="4" to-layer="1721" to-port="0" />
		<edge from-layer="1625" from-port="3" to-layer="1629" to-port="0" />
		<edge from-layer="1625" from-port="3" to-layer="1634" to-port="0" />
		<edge from-layer="1626" from-port="0" to-layer="1633" to-port="0" />
		<edge from-layer="1627" from-port="0" to-layer="1633" to-port="1" />
		<edge from-layer="1628" from-port="0" to-layer="1633" to-port="2" />
		<edge from-layer="1629" from-port="1" to-layer="1632" to-port="0" />
		<edge from-layer="1629" from-port="1" to-layer="1642" to-port="0" />
		<edge from-layer="1629" from-port="1" to-layer="1645" to-port="0" />
		<edge from-layer="1630" from-port="0" to-layer="1632" to-port="1" />
		<edge from-layer="1631" from-port="0" to-layer="1645" to-port="2" />
		<edge from-layer="1631" from-port="0" to-layer="1632" to-port="2" />
		<edge from-layer="1632" from-port="3" to-layer="1633" to-port="3" />
		<edge from-layer="1633" from-port="4" to-layer="1634" to-port="1" />
		<edge from-layer="1634" from-port="2" to-layer="1636" to-port="0" />
		<edge from-layer="1635" from-port="0" to-layer="1636" to-port="1" />
		<edge from-layer="1636" from-port="2" to-layer="1637" to-port="0" />
		<edge from-layer="1637" from-port="1" to-layer="1639" to-port="0" />
		<edge from-layer="1638" from-port="0" to-layer="1639" to-port="1" />
		<edge from-layer="1639" from-port="2" to-layer="1647" to-port="0" />
		<edge from-layer="1640" from-port="0" to-layer="1642" to-port="1" />
		<edge from-layer="1641" from-port="0" to-layer="1642" to-port="2" />
		<edge from-layer="1642" from-port="3" to-layer="1646" to-port="0" />
		<edge from-layer="1643" from-port="0" to-layer="1646" to-port="1" />
		<edge from-layer="1644" from-port="0" to-layer="1645" to-port="1" />
		<edge from-layer="1645" from-port="3" to-layer="1646" to-port="2" />
		<edge from-layer="1646" from-port="3" to-layer="1647" to-port="1" />
		<edge from-layer="1647" from-port="2" to-layer="1662" to-port="0" />
		<edge from-layer="1647" from-port="2" to-layer="1651" to-port="0" />
		<edge from-layer="1647" from-port="2" to-layer="1678" to-port="0" />
		<edge from-layer="1648" from-port="0" to-layer="1662" to-port="1" />
		<edge from-layer="1649" from-port="0" to-layer="1660" to-port="0" />
		<edge from-layer="1650" from-port="0" to-layer="1660" to-port="1" />
		<edge from-layer="1651" from-port="1" to-layer="1654" to-port="0" />
		<edge from-layer="1652" from-port="0" to-layer="1654" to-port="1" />
		<edge from-layer="1653" from-port="0" to-layer="1654" to-port="2" />
		<edge from-layer="1654" from-port="3" to-layer="1656" to-port="0" />
		<edge from-layer="1655" from-port="0" to-layer="1656" to-port="1" />
		<edge from-layer="1656" from-port="2" to-layer="1658" to-port="0" />
		<edge from-layer="1657" from-port="0" to-layer="1658" to-port="1" />
		<edge from-layer="1658" from-port="2" to-layer="1660" to-port="2" />
		<edge from-layer="1658" from-port="2" to-layer="1675" to-port="0" />
		<edge from-layer="1658" from-port="2" to-layer="1672" to-port="2" />
		<edge from-layer="1659" from-port="0" to-layer="1660" to-port="3" />
		<edge from-layer="1660" from-port="4" to-layer="1662" to-port="2" />
		<edge from-layer="1661" from-port="0" to-layer="1662" to-port="3" />
		<edge from-layer="1662" from-port="4" to-layer="1663" to-port="1" />
		<edge from-layer="1663" from-port="2" to-layer="1668" to-port="0" />
		<edge from-layer="1663" from-port="2" to-layer="1688" to-port="1" />
		<edge from-layer="1664" from-port="0" to-layer="1668" to-port="1" />
		<edge from-layer="1665" from-port="0" to-layer="1668" to-port="2" />
		<edge from-layer="1666" from-port="0" to-layer="1668" to-port="3" />
		<edge from-layer="1667" from-port="0" to-layer="1668" to-port="4" />
		<edge from-layer="1668" from-port="5" to-layer="1685" to-port="0" />
		<edge from-layer="1669" from-port="0" to-layer="1672" to-port="0" />
		<edge from-layer="1670" from-port="0" to-layer="1676" to-port="1" />
		<edge from-layer="1670" from-port="0" to-layer="1672" to-port="1" />
		<edge from-layer="1671" from-port="0" to-layer="1672" to-port="3" />
		<edge from-layer="1671" from-port="0" to-layer="1676" to-port="3" />
		<edge from-layer="1672" from-port="4" to-layer="1678" to-port="1" />
		<edge from-layer="1673" from-port="0" to-layer="1676" to-port="0" />
		<edge from-layer="1674" from-port="0" to-layer="1675" to-port="1" />
		<edge from-layer="1675" from-port="2" to-layer="1676" to-port="2" />
		<edge from-layer="1676" from-port="4" to-layer="1678" to-port="2" />
		<edge from-layer="1677" from-port="0" to-layer="1678" to-port="3" />
		<edge from-layer="1678" from-port="4" to-layer="1679" to-port="1" />
		<edge from-layer="1679" from-port="2" to-layer="1688" to-port="0" />
		<edge from-layer="1679" from-port="2" to-layer="1684" to-port="0" />
		<edge from-layer="1680" from-port="0" to-layer="1684" to-port="1" />
		<edge from-layer="1681" from-port="0" to-layer="1684" to-port="2" />
		<edge from-layer="1682" from-port="0" to-layer="1684" to-port="3" />
		<edge from-layer="1683" from-port="0" to-layer="1684" to-port="4" />
		<edge from-layer="1684" from-port="5" to-layer="1685" to-port="1" />
		<edge from-layer="1685" from-port="2" to-layer="1687" to-port="0" />
		<edge from-layer="1686" from-port="0" to-layer="1687" to-port="1" />
		<edge from-layer="1687" from-port="2" to-layer="1689" to-port="0" />
		<edge from-layer="1688" from-port="2" to-layer="1689" to-port="1" />
		<edge from-layer="1689" from-port="2" to-layer="1720" to-port="0" />
		<edge from-layer="1690" from-port="0" to-layer="1696" to-port="0" />
		<edge from-layer="1691" from-port="2" to-layer="1693" to-port="0" />
		<edge from-layer="1692" from-port="0" to-layer="1693" to-port="1" />
		<edge from-layer="1693" from-port="2" to-layer="1695" to-port="0" />
		<edge from-layer="1694" from-port="0" to-layer="1695" to-port="1" />
		<edge from-layer="1695" from-port="2" to-layer="1696" to-port="1" />
		<edge from-layer="1696" from-port="2" to-layer="1698" to-port="0" />
		<edge from-layer="1697" from-port="0" to-layer="1698" to-port="1" />
		<edge from-layer="1698" from-port="2" to-layer="1717" to-port="0" />
		<edge from-layer="1699" from-port="0" to-layer="1705" to-port="0" />
		<edge from-layer="1700" from-port="2" to-layer="1702" to-port="0" />
		<edge from-layer="1701" from-port="0" to-layer="1702" to-port="1" />
		<edge from-layer="1702" from-port="2" to-layer="1704" to-port="0" />
		<edge from-layer="1703" from-port="0" to-layer="1704" to-port="1" />
		<edge from-layer="1704" from-port="2" to-layer="1705" to-port="1" />
		<edge from-layer="1705" from-port="2" to-layer="1707" to-port="0" />
		<edge from-layer="1706" from-port="0" to-layer="1707" to-port="1" />
		<edge from-layer="1707" from-port="2" to-layer="1717" to-port="1" />
		<edge from-layer="1708" from-port="0" to-layer="1714" to-port="0" />
		<edge from-layer="1709" from-port="2" to-layer="1711" to-port="0" />
		<edge from-layer="1710" from-port="0" to-layer="1711" to-port="1" />
		<edge from-layer="1711" from-port="2" to-layer="1713" to-port="0" />
		<edge from-layer="1712" from-port="0" to-layer="1713" to-port="1" />
		<edge from-layer="1713" from-port="2" to-layer="1714" to-port="1" />
		<edge from-layer="1714" from-port="2" to-layer="1716" to-port="0" />
		<edge from-layer="1715" from-port="0" to-layer="1716" to-port="1" />
		<edge from-layer="1716" from-port="2" to-layer="1717" to-port="2" />
		<edge from-layer="1717" from-port="3" to-layer="1719" to-port="0" />
		<edge from-layer="1718" from-port="0" to-layer="1719" to-port="1" />
		<edge from-layer="1719" from-port="2" to-layer="1720" to-port="1" />
		<edge from-layer="1720" from-port="2" to-layer="1722" to-port="0" />
		<edge from-layer="1721" from-port="1" to-layer="1722" to-port="1" />
		<edge from-layer="1722" from-port="2" to-layer="1723" to-port="0" />
	</edges>
	<rt_info>
		<MO_version value="2023.0.1-11005-fa1c41994f3-releases/2023/0" />
		<Runtime_version value="2023.0.1-11005-fa1c41994f3-releases/2023/0" />
		<conversion_parameters>
			<framework value="onnx" />
			<input_model value="DIR\yolo_c_640.onnx" />
			<is_python_api_used value="True" />
			<model_name value="YOLO_c_640" />
		</conversion_parameters>
		<framework>
			<author value="Ultralytics" />
			<description value="Ultralytics YOLO_c_640 model trained on dataset_v8.yaml" />
			<license value="GPL-3.0 https://ultralytics.com/license" />
			<names value="{0: 'Car', 1: 'Motorcycle', 2: 'Truck', 3: 'Bus', 4: 'Van', 5: 'Tampoo'}" />
			<stride value="32" />
			<version value="8.0.43" />
		</framework>
		<legacy_frontend value="False" />
		<nncf>
			<quantization>
				<advanced_parameters value="{}" />
				<fast_bias_correction value="True" />
				<ignored_scope>
					<names value="['/model.22/dfl/conv/Conv', '/model.22/Add', '/model.22/Add_1', '/model.22/Add_2', '/model.22/Add_3', '/model.22/Add_4', '/model.22/Add_5', '/model.22/Add_6', '/model.22/Add_7', '/model.22/Add_8', '/model.22/Add_9', '/model.22/Add_10']" />
					<patterns value="[]" />
					<types value="['Multiply', 'Subtract', 'Sigmoid']" />
				</ignored_scope>
				<model_type value="None" />
				<preset value="mixed" />
				<subset_size value="300" />
				<target_device value="ANY" />
			</quantization>
		</nncf>
	</rt_info>
</net>
